results/240101_223211/model1.pth (torch, 9140 bytes, 8 tensors)

weight f4 [8, 3, 3, 3]
00000000: 40c1 033e a6ed 19be 0238 d13d 6ebc 2a3e
00000010: 0982 1a3e 9bbe febb c4f5 57bb 6c2a 083e
00000020: 3bd2 d53b afc2 1abe 7e1e d93d d571 e9bd
00000030: 9ff6 ee3d cf9d 6c3c 6e86 9a3d 7ae3 093e
00000040: 8e1d fbbd d292 463e 4838 973d 9504 df3d
00000050: 3bcf 1d3c d14a 2b3e 0dda 07bd 75d6 2b3e
00000060: d420 2b3e eca1 6fbc 2307 4abe 95cb 863d
00000070: 86c3 173e 078a 823d 211a 76bd 526a 533e
00000080: 5ccb 933d 70e7 de3d 2248 103e 70a2 6dbc
00000090: 989d c23d d5e1 853e af6b b73d c3aa 953c
000000a0: 4c3b 92bd 03e4 b0bd a3c9 2f3e 9dd7 ff3d
000000b0: c755 a3bd f9a1 e8bd 5831 ddbd f3cb b83d
000000c0: 95f0 20bd 0a62 983a 1298 1dbe 1c89 3abb
000000d0: a82d 1f3e ad5d 14be 7d9b 073e bc5b 01bd
000000e0: 2a4c 263e b1e4 213e 647a febc 71df b03e
000000f0: 80a6 a13d 8f76 0b3e e0e2 193d 8715 9c3d
00000100: b688 2dbd 45ff c6bd 59c3 acbd afec 1b3e
00000110: d86a 6b3e e6ae 0bbe d754 43be 81d1 053e
00000120: fee4 cfbd 539e 0a3d bd74 d5bd 52e1 c4bd
00000130: 0461 51bd 28c6 6f3e 5782 0ebd 08f4 edbd
00000140: 1d11 653d adae 52bc 7f5e 2ebe b1df eabd
00000150: c510 a23d dc06 313e 8822 e23d 3b76 6fbe
00000160: 079f d63d 8382 813d e922 bd3d 353b 00be
00000170: e84d 17bd 7f62 323d 94cd d03d 55a4 383e
00000180: 9aa9 603d a959 1e3e d843 d63d 91f4 fe3d
00000190: 69eb 343e 93f5 f7bd 4048 41be a315 6e3e
000001a0: e52f 9abd 8f14 0dbe 3ae5 793e f6ca 34bd
000001b0: 0966 0b3e 606f b23d dfe1 66be def4 993c
000001c0: d208 85be 84d3 22be 8a78 5c3e 6994 e2bd
000001d0: 28d4 a73c 3eec 643e 1b49 183e 0d45 d4bc
000001e0: 799e 003e 54a9 f4bd b35b bfbd 082f 003e
000001f0: 578a 48ba 585e b73e 1024 41bc a158 0bbd
00000200: bb08 0bbe 3b53 95be 27a7 c73d 7686 aebd
00000210: eb38 55be 4f04 9d3d 44a5 0dbd 8ff9 893d
00000220: 7a7f 22bd 8862 3cbd 573e 233d 62d4 03bb
00000230: f4f3 213e 121b 88be d82d 073e 5e4d 5fbe
00000240: 832d a33d 7871 113d 1e94 2f3e ea19 863e
00000250: 1407 a23e 8f90 31bd 4f65 ff3d c506 573e
00000260: ee34 823e bc08 0cbe cb7c 41be 9a92 893d
00000270: 48b2 3b3e ddf8 3f3e 795e 66bd f173 8fbe
00000280: aca7 333b 3fed 05be b403 133e dbcf dd3c
00000290: ae82 01be f565 2b3e 102c b93c 6031 16be
000002a0: 87fd 12be 9e1f 263e 1508 0ebe 2a35 783d
000002b0: e5c2 143b 90af 18bd 7988 45bd 8250 543d
000002c0: b9fa e33d 337e 5cbe 5c5b f63d 74a5 4ebc
000002d0: e8ad 0f3e 7934 723e 1857 7c3c d7ed a23e
000002e0: 7e97 e53d 2fc7 023e 429e 303e b661 483e
000002f0: bf30 e1bd ef91 5bbe 399f 7a3c ed92 113e
00000300: fb65 1dbe d68a ea3d 9e4e 813d d21e 84be
00000310: 1683 49be f4cf fdb9 4c98 333e 75c4 5e3e
00000320: 8800 233e a089 8a3e d13c 963e a86b 5cbd
00000330: 27d4 2f3e c0da 573e d673 0b3e d3e9 1c3e
00000340: 1df8 453c d3f8 273d b056 723e c19c 4f3d
00000350: 2190 8c3d 55a0 e7bd 8dd6 543e 09bb e3bd
0.12866688 -0.15032062 0.10215761 0.16673443 0.15088667 -0.007774187 -0.0032952884 0.13297433
0.0065253056 -0.15113328 0.10601519 -0.11398665 0.11668133 0.014441921 0.07545172 0.13465682
-0.122614965 0.19391945 0.07383782 0.10889546 0.009631927 0.16727759 -0.033166934 0.16781028
0.16711742 -0.0146260075 -0.19729285 0.06581799 0.1482068 0.06373983 -0.060083512 0.20646027
0.07216522 0.10883987 0.14090016 -0.01450406 0.09502715 0.2614886 0.08956086 0.018269902
-0.07140216 -0.0863724 0.17166762 0.12492297 -0.07975345 -0.11359019 -0.10800427 0.09023275
-0.039291937 0.0011625898 -0.15390041 -0.0028463071 0.1554476 -0.1448886 0.13242908 -0.031581625
0.16239992 0.15809895 -0.03106422 0.34545472 0.078930855 0.13619445 0.03756988 0.076212935
-0.042366706 -0.097166575 -0.08435697 0.15227006 0.22989976 -0.13640937 -0.19075333 0.130682
-0.10151099 0.033842396 -0.10422657 -0.09613289 -0.051117912 0.23415434 -0.03479227 -0.11618811
0.055924524 -0.012859029 -0.17028235 -0.11468447 0.07913355 0.17287773 0.110417426 -0.23384945
0.10479551 0.06323721 0.09235174 -0.12522586 -0.03693953 0.043550964 0.10195461 0.18031438
0.054849245 0.1546389 0.10462159 0.12448991 0.17667927 -0.121073864 -0.18875217 0.23250441
-0.075286664 -0.13777374 0.24403849 -0.04413887 0.13613142 0.08712649 -0.225471 0.01879352
-0.25983292 -0.15901 0.21530357 -0.11063463 0.020486906 0.22355744 0.14871638 -0.025911832
0.12560453 -0.11946359 -0.09343662 0.12517941 -0.0007650009 0.35814166 -0.011788383 -0.03402007
-0.13577549 -0.29165062 0.09748679 -0.0852174 -0.20822494 0.076668374 -0.034581438 0.06737053
-0.039672352 -0.045992404 0.039854374 -0.0020115604 0.15815717 -0.26583153 0.13201082 -0.21806857
0.07967665 0.035508603 0.17146346 0.26191646 0.31646025 -0.043350752 0.12470495 0.20998676
0.25431007 -0.13675207 -0.18895261 0.06717415 0.18329728 0.18747278 -0.05624244 -0.28018144
0.0027413173 -0.13078783 0.14356881 0.027076652 -0.12647507 0.16738112 0.022604018 -0.14667273
-0.14354526 0.16222998 -0.1387027 0.060597576 0.0022699174 -0.037276804 -0.048225854 0.05183459
0.11131806 -0.21532516 0.12029144 -0.012612689 0.14031184 0.23652829 0.015401624 0.31822082
0.112105355 0.12771295 0.1724787 0.19568524 -0.10995626 -0.21442388 0.015296751 0.14216204
-0.15370934 0.11452262 0.06313823 -0.25804764 -0.19678912 -0.00048410858 0.17538565 0.2175463
0.15918171 0.27058125 0.29343274 -0.053813607 0.17170773 0.2107954 0.13618407 0.15323572
0.012083081 0.04100878 0.23665881 0.0506866 0.06863428 -0.11309878 0.2078497 -0.111196585

bias f4 [8]
00000000: 7b54 71bd 32a1 143e 188c 363e 3811 4c3e
00000010: a381 833e 42bb bc3d 9626 9b3c 3f88 dcbd
-0.058918457 0.14514616 0.17826879 0.19928443 0.25684842 0.09215404 0.018939298 -0.107681744

weight f4 [4, 8, 3, 3]
00000000: 31ab d63d 519f ea3d d4d4 4abd 60d8 4f3d
00000010: 9dff 8abc 13bf 83bc 4ea8 cb3d 97dc 1cbd
00000020: d4a1 183d 191d 8b3d 3ce0 2ebd 4a7b ec3c
00000030: e896 f63d f1bf 3f3e d00f ce3b efe4 993c
00000040: a0e6 f03c 8a62 a03d 1183 f03d db0f 523e
00000050: 146f 1f3e d789 a9bd 0803 2a3e 45c4 aa3d
00000060: e289 233b a184 643d 8d2d 87bd 879e 40bd
00000070: b700 dabc 5d7a cdbc f2cf 8cbd 7101 3c3d
00000080: c7e7 a63d 6234 793d 98b4 173c 831d 833c
00000090: 5ed0 42bd a932 d03d 3883 793e 23fc df3d
000000a0: 63b7 5f3d bff3 213e c7cd 1e3e 863c bdbd
000000b0: 34bd b63c 7da0 f73d fc13 053e 2a55 493e
000000c0: cb49 073c 3f06 bcbb 90b4 323b 47fc 143e
000000d0: 678a 3a3e abcf e33d 285f 283d 22f3 aabd
000000e0: a7c9 8f3d 6cd0 fdbc d39c cfbd 1714 debd
000000f0: 655b b03d 28a6 a7bd c57a e33c 353d 293e
00000100: 1aef 1e3e 486b d13d c2ae fb3d 77f7 493d
00000110: 31eb b6bc d596 cf3d e448 5d3d 9155 b93d
00000120: 7f8a ef3d b6ca afbd 2a95 55bc 9c89 033e
00000130: 2535 c0bd 8eee e73d 9004 023e aa69 cd3c
00000140: e4c5 b83d 8630 a33c 961c 58bd a487 f7bc
00000150: f9eb 563d 56c2 47be eb37 e43d 24ae 00bd
00000160: f731 1dbd f298 3e3e 9f53 61bd 32d6 943d
00000170: 5c9d d83d 6328 fc3c 7d6e e93d e03d 15bd
00000180: 850a e1bd 0b21 3e3e 2bc8 d83d aa84 68bd
00000190: dda1 d03d 70fa b13d 58c0 bfbd 6433 9a3d
000001a0: 7dd7 5d3e c8e6 093e 23da a33d d2b6 753d
000001b0: c129 ad3d 6479 753a b42d 00bd d46a 2e3e
000001c0: da68 073e f022 623d a822 4d3d d444 fdbd
000001d0: 1263 8c3d 29ee 2ebd 6be9 fe3b 8830 103e
000001e0: cd98 453e 4447 453b 3978 603e e5f3 f23d
000001f0: 4863 693d f849 1e3e 8fac 15bc a265 00bd
00000200: f18e 903d 7f49 0f3c 509f 30be 0d37 95bd
00000210: 4ddb fb3d 79b6 6b3d 188c 7c3d a52f 8a3c
00000220: e046 193e 2673 513d f6b5 6a3d 2c24 a0bd
00000230: 3445 8dbd 8522 acbb 63e0 ac3d 082a 803e
00000240: d041 8bbc f937 f6bb 1e19 1d3d 3e4b bf3d
00000250: 12da 1f3d 97bb 69bc 070d 81bd cdb7 683d
00000260: 0db8 fa3d 87e6 853d 8705 f43d 990c de3d
00000270: dda3 27bc 405d e73c f4f6 02bd c282 84bd
00000280: af73 103e 7611 a7bc 37e8 beba 7954 6cbd
00000290: 7f6d 10bd 75ef 663e 519f e43d cb7a 903d
000002a0: 64b0 253e 57a2 013e 1324 5a3d 153c 283d
000002b0: e4ee 7fbd fdd9 d7bd 5641 b4bc 7630 343e
000002c0: 55c6 1a3d a604 02bc b391 113e 480e 3bbd
000002d0: d81a 223e a79c 5a3d ab55 163e 6426 03be
000002e0: 4d8c 0ebe 2026 debd 5a01 95be eae8 f2bb
000002f0: 4b1e 423e 2d29 d23d 92c6 dcbd 5a41 f3bd
00000300: fa8d f8bc 53f5 083e 5b04 af3d 9e95 e8bc
00000310: f090 2b3b 4ab2 093e 0fbe 293e d932 59bd
00000320: 3fe3 bd3b 5d63 7bbd 98ee 80bd a52a 0dbd
00000330: d7e8 53bd 8825 f23d 7aa4 a53c 7d3c 843d
00000340: af13 40bd 992b 19bb afa5 80bd eacd b43d
00000350: b6e1 613d 9834 9f3d af82 d13d ab4b a1bc
00000360: e06a 64bd b364 ad3d 744a d43d 740e cc3d
00000370: 3901 88bd 9ea1 a53d 7341 5dbc 3b53 3bbd
00000380: 3c85 0a3d 6444 083d 394b bb3c 5bb4 a53d
00000390: 5a8b b73d 8b7f 983b 1c11 d4bc e009 80bc
000003a0: e1e7 63bd f5d3 883d eefa f93d 79f2 abbd
000003b0: 43e6 a3bd 72a6 57bd 43af f0bc 8123 17bc
000003c0: 7f7e 5f3b 2378 84bd 5705 8e3c 35f5 f93c
000003d0: d7ce b93b d354 963c 1ba3 27bd 4f52 1abd
000003e0: b6ad 093e b890 283d 326e 2c3e 2694 043e
000003f0: e86a 233e 2bee ecbc f29b 1cbd 93a9 d8bd
0.10481871 0.114561684 -0.049519375 0.05074346 -0.016967589 -0.016082322 0.09944211 -0.03829631
0.037263706 0.06792659 -0.042694315 0.028867383 0.12040502 0.18725564 0.006288506 0.018785922
0.029406846 0.07831295 0.11743749 0.20513861 0.15569717 -0.08278244 0.16602719 0.08338217
0.002495401 0.055790547 -0.06600485 -0.047026183 -0.026611669 -0.025082761 -0.068756 0.045899812
0.08149677 0.06084097 0.0092593655 0.016005283 -0.047561996 0.10165913 0.24366462 0.10936763
0.05461825 0.15815638 0.15508185 -0.092400596 0.022307016 0.120911576 0.12995905 0.19661394
0.00825734 -0.0057380493 0.0027268268 0.14549361 0.18216859 0.11123594 0.041106373 -0.08347155
0.07020884 -0.030983172 -0.10137334 -0.108436756 0.08611182 -0.08185989 0.027768502 0.16527255
0.15520898 0.102255404 0.12289192 0.049308266 -0.022328945 0.10136191 0.054024592 0.090495236
0.11696338 -0.08583586 -0.013036052 0.12845463 -0.093851365 0.113247976 0.12697053 0.025074799
0.0902212 0.019920599 -0.052761637 -0.030216046 0.052471135 -0.19507727 0.11143478 -0.031416073
-0.03837773 0.18613032 -0.055011388 0.07267417 0.10576889 0.030780977 0.11398027 -0.03643596
-0.109883346 0.18567292 0.10585054 -0.056767143 0.10187123 0.08690345 -0.093628585 0.07529333
0.21664234 0.13466942 0.08000591 0.059988804 0.084552296 0.0009364097 -0.031293586 0.17032939
0.13223591 0.0552091 0.05008188 -0.123666435 0.06854834 -0.042707596 0.0077792904 0.14081013
0.1929657 0.0030102292 0.21920861 0.118629254 0.056979448 0.15457904 -0.009135379 -0.031346925
0.07058514 0.00874555 -0.17248273 -0.07285891 0.12297688 0.057547066 0.06165704 0.016868422
0.14968443 0.051135205 0.057302438 -0.07819399 -0.06897965 -0.0052531385 0.08441236 0.25032067
-0.016999155 -0.0075139967 0.03835403 0.09340523 0.039026327 -0.014265916 -0.06301313 0.05681591
0.12242136 0.0653811 0.11915117 0.108422466 -0.010231939 0.028242707 -0.031973794 -0.064702526
0.1410663 -0.020394068 -0.0014565055 -0.057697747 -0.035260674 0.22552283 0.111632 0.07054671
0.16180569 0.12659584 0.05325706 0.041072924 -0.062483683 -0.10539625 -0.02200381 0.17596611
0.0377868 -0.007935679 0.14215736 -0.045667917 0.15830553 0.05337205 0.14681117 -0.12807614
-0.13920708 -0.108471155 -0.29102594 -0.0074130194 0.18956868 0.1026176 -0.10780062 -0.11877699
-0.030341137 0.13374834 0.085457526 -0.028391656 0.0026178919 0.13446918 0.16576408 -0.053027008
0.005794912 -0.061374057 -0.06295508 -0.034464497 -0.051735725 0.11823565 0.02022003 0.0645685
-0.04689377 -0.0023371933 -0.06281602 0.088283375 0.055146895 0.07773703 0.10230004 -0.019689402
-0.055765986 0.084664725 0.10365763 0.09963694 -0.06640858 0.08087467 -0.013504374 -0.04573367
0.03381847 0.033268347 0.022863017 0.08091041 0.08962126 0.004653876 -0.025887065 -0.015629709
-0.05564106 0.066810526 0.12206064 -0.08395857 -0.08002903 -0.05264897 -0.029380446 -0.009224773
0.0034102497 -0.06468227 0.01733653 0.030512432 0.005670409 0.018350994 -0.040927034 -0.03767615
0.13445172 0.04115364 0.16838911 0.12947139 0.1595875 -0.028922161 -0.03823466 -0.10579219

bias f4 [4]
00000000: 8424 5abd ca5d 9ebb 5a15 833d 972b 4a3c
-0.05325748 -0.004832958 0.06400557 0.012339494

weight f4 [4, 8, 3, 3]
00000000: d559 bb3d d0f3 10be f83d 49bd 6f0e d53d
00000010: 31d0 523d f998 fc3c 64a9 07bd cd40 01be
00000020: 2a16 7a3d 286a 163d b0ba 9bbc 3452 d43d
00000030: 9fe5 c63d ad2a 87bd 2eb8 f7bc f195 5b3c
00000040: aea3 c23d eeed de3d a56a afbb d6fe 0cbd
00000050: 6485 873d 3002 413e ec6e 3d3d afcd bdbd
00000060: 890a b9bc dca8 0ebd d05b cd3d 4143 7c3d
00000070: 8fce 82bd 6af8 17bd 1d2d 3e3e ec2d c73c
00000080: a5b4 b13b aef2 253d d330 a43d ddab dd3d
00000090: 3975 1dbd 2414 233d 078a 72bd 614e c1bd
000000a0: 5f90 f43c 5eda 493d 8812 35bd 3faa 1dbd
000000b0: c4c4 bfbd 5410 853d bc15 bd3d 8da5 953d
000000c0: fb10 283c 44eb f83d 3c2f 9c3d 5b5d 943d
000000d0: 35cc 8cba 3f21 aabd cdc5 1c3e ddca 0b3e
000000e0: 0b4e f13d 99f3 06bc 1201 af3d 6b07 083e
000000f0: 2d8c 26bc 63ac 5e3b aae3 20bd dbbc 9cbd
00000100: e546 bcbd a5eb f4bd 32ea 84bd 7794 3cbc
00000110: 7b45 8d3d 566a e2bc 0ab9 a83d fa69 853d
00000120: 7beb 17be 990b 06be 389d 3cbd 37a2 923d
00000130: 94b0 26bd aec0 973e 63c8 b5bc ca31 3dbd
00000140: 9501 7c3e 70de e23d abf3 f43d a459 aebd
00000150: 3e33 80bc 0951 08be 3d74 413d ad02 ff3d
00000160: 3ef9 0bbe 2da2 89bd d42b fd3c 008b 943d
00000170: b239 b03c 6052 313e cfcc 9dbc 979a 01bd
00000180: ef98 31bc d434 a63c 3308 73bc 9b74 033e
00000190: 4184 573d 0281 b3ba 2dfe 973c c843 543d
000001a0: 485d cbbd bf92 1c3e 9768 a8bd 4628 94bd
000001b0: 7401 183d 664e ebbd 393e 2a3b c0b6 2abd
000001c0: 83ec 0bbe b6a4 85bc ef37 e83d 7df7 063e
000001d0: 7c35 5c3e f318 953d 9845 01bd 0bfe 0dbe
000001e0: c85f 763d 12f1 bbbd 7e78 03be cbf3 5cbd
000001f0: b7ee fbbd c836 92be 63e4 8abd ef1f 0cbd
00000200: ded8 c13d 2d8f 6cbd b3fe 26bd 6902 5bbd
00000210: 0a7a 813c c825 91bd bb5c 413e e69c 7d3d
00000220: ab3e 363e ec73 293e f826 5ebd e760 23be
00000230: 2e1d 0fbd 9f09 67bc 1350 823d a0fa a7bd
00000240: 4cd2 c23c 5523 473d 7fad c5bd fab6 383d
00000250: 14b5 da3d 71d5 843d 0596 77bd 3c98 59bd
00000260: aded eb3c eb9b 293c f24b 093d 071e 803d
00000270: 99af e2bc f326 ebbc 8993 bebd 5b00 b0bd
00000280: f0c6 863d aff6 d8bd 9e30 d4bc c59f 1d3d
00000290: b335 6dbc 07e0 31be cdc6 a0bd 9af3 f2bb
000002a0: 03dd febd 961a dfbd 53bc 72bd 7775 a63d
000002b0: 0468 0b3e f657 2c3e ef81 00bd ddc3 c3bd
000002c0: ca90 cbbc 0fc4 e2bd 0ea4 18bd a0f3 dd3d
000002d0: 03c7 adbd ba12 263d 3bb8 ee3d 0e43 813d
000002e0: 272e 913d 9532 203e 1076 67bd 3f14 8d3d
000002f0: f2dc cb3d 5525 0a3e 764d f1bc 3714 a43d
00000300: c2a9 313d e79f 05bd 2615 6bbd bc27 a93d
00000310: 109e 8bbb 3b98 e33d d1c5 583d 7553 413c
00000320: e8b9 623d 3a2c 7b3d caf8 cabd 8039 fdbd
00000330: d1ca 88bd 0f46 223d 166e db3b 4a5a 41bc
00000340: 350e 39be db73 45bc 8e6e 103d dad9 e2bd
00000350: 0f56 debd 7c3f cabd 82da 1abe 97d5 45be
00000360: dbb6 053c 6a18 5bbd 7de1 e53c 8f1d c03b
00000370: f24e f6bc 5a4f 44bd 4af0 893c 845a a63d
00000380: 5e5c 193d 791a 5fbe 763e 10be aafe 42bd
00000390: 9a03 61be 0f4b b9bc 382e c5bc 4f2e 17be
000003a0: 59ab 7ebd 8c9d 34bc df08 abbd ab29 173d
000003b0: b044 5d3d 9341 c93d 8bc3 353c db9b 4a3d
000003c0: 7902 ba3d 1c4c e53c 469c d03d 62d2 1fbe
000003d0: 51ba 423d 2aea 58bd 9af3 8c3c 9fac dabd
000003e0: 2a0d 303c dc21 9abc 8da2 cc3c cb8f 163d
000003f0: 64f1 b53b 1eb3 b33d 2972 a53c be87 ed3d
0.091479935 -0.14155507 -0.049131364 0.104031436 0.051468078 0.030834662 -0.033120528 -0.12622376
0.061056294 0.036722332 -0.019009918 0.103672415 0.097117655 -0.06599937 -0.03023919 0.013402448
0.09503876 0.10885225 -0.005353289 -0.034422718 0.06617239 0.1884849 0.04624836 -0.09267747
-0.022588031 -0.034829006 0.100272775 0.061587576 -0.06387054 -0.03710214 0.18571897 0.02431389
0.005423146 0.04051464 0.08017125 0.10823796 -0.03844187 0.03981413 -0.059213664 -0.09438778
0.029853998 0.049280517 -0.044207126 -0.038492437 -0.09363702 0.06497255 0.09232661 0.07306967
0.010257955 0.12154248 0.07626197 0.07244369 -0.0010742011 -0.083071224 0.1530983 0.13651605
0.11782464 -0.008236789 0.08545126 0.1328408 -0.010165256 0.0033977262 -0.039279617 -0.07653209
-0.091932096 -0.11959008 -0.06489982 -0.011510006 0.06898018 -0.027638596 0.082384184 0.06514354
-0.14835922 -0.13090362 -0.046048373 0.07159846 -0.04069574 0.2963919 -0.022190278 -0.04619006
0.24609978 0.11077583 0.119605385 -0.08513191 -0.015649434 -0.13312162 0.047229994 0.12451682
-0.13669297 -0.06720386 0.030904688 0.07253075 0.021511886 0.1731658 -0.0192627 -0.03164157
-0.010839685 0.020288862 -0.014833498 0.1283745 0.05261636 -0.0013695064 0.018553818 0.051822454
-0.09929901 0.15290354 -0.08223074 -0.07234244 0.03711076 -0.11489563 0.002597703 -0.04167819
-0.13664441 -0.016313892 0.113387935 0.13180347 0.21504778 0.07280149 -0.03156051 -0.13866441
0.060149938 -0.0917684 -0.12838933 -0.053943437 -0.123013906 -0.2855742 -0.067818426 -0.03421014
0.09465192 -0.05775373 -0.040770244 -0.053469095 0.015805263 -0.07087284 0.1888303 0.061917208
0.17797343 0.16548127 -0.054236382 -0.15954934 -0.034939937 -0.014101415 0.06362929 -0.082021
0.023781918 0.04861768 -0.096522324 0.045096375 0.10679069 0.06486023 -0.060445804 -0.053123698
0.028799856 0.010352115 0.033519693 0.06255727 -0.027671622 -0.028705096 -0.09305484 -0.08593818
0.06580913 -0.10593926 -0.025902089 0.038482446 -0.014478135 -0.17370616 -0.07850418 -0.0074142935
-0.124444984 -0.10893743 -0.05926163 0.081278734 0.13613898 0.1683043 -0.031373914 -0.09558842
-0.024849314 -0.110725515 -0.03726583 0.108374834 -0.08485224 0.040545203 0.11656233 0.06311618
0.07088881 0.15644296 -0.056509078 0.06888627 0.09954251 0.13490804 -0.029455882 0.08011668
0.043374784 -0.032623198 -0.057393216 0.08259532 -0.004260786 0.1111302 0.052923027 0.011799683
0.055353075 0.061321475 -0.09910734 -0.12364483 -0.06679309 0.039617594 0.006696473 -0.011801312
-0.18071826 -0.012051548 0.035261683 -0.11076708 -0.10856258 -0.0987539 -0.15122417 -0.1931976
0.008161272 -0.05349008 0.028061623 0.0058628987 -0.030066941 -0.047927238 0.016838212 0.08122733
0.037441604 -0.21787442 -0.14086327 -0.047606148 -0.2197403 -0.022618799 -0.02406989 -0.14763759
-0.06217513 -0.01102389 -0.083513014 0.036904972 0.054020584 0.098269604 0.011093984 0.04946504
0.09082503 0.027990393 0.10186057 -0.15607598 0.047540966 -0.05295769 0.017206002 -0.10677456
0.010745326 -0.018814974 0.024979854 0.036758225 0.0055524576 0.08774398 0.020196037 0.115981564

bias f4 [8]
00000000: 7b89 16bc 9f6b da3d 04c4 123e b05f ab3d
00000010: 7c39 f53c 33a1 c43c 6586 60bd 77d3 273e
-0.009188051 0.10665058 0.14332587 0.0836786 0.029934637 0.024002647 -0.05481567 0.16389261

weight f4 [8, 3, 3, 3]
00000000: 35b1 d53b d579 f43d 511e 663e 7348 bb3c
00000010: 124a 6a3e dc42 1a3d 06c1 e03d 42a9 703d
00000020: 300a 8c3d 09c6 063e 09f1 093e 98bf 1e3e
00000030: 1ffe f73d 5da6 333e 4f84 f13d 52df 3ebd
00000040: 5e8a b13e d1ef 38bc 34df f63d 5b65 033e
00000050: a94e 773d 6f91 7e3d aeeb c03b 49c9 843d
00000060: 4784 bf3d 9ded 253e a0a3 273e 5189 2fbd
00000070: 7c76 973d e606 34be e9a5 44be 3c94 c1bc
00000080: b9df 2cbe 9f2a 0ebe 8e90 c53d 5061 7fbc
00000090: ed85 4bbe db16 8e3a 1d83 40be b2e7 55be
000000a0: d520 7fbd 9ebe 91be 3396 a7bd ec73 16be
000000b0: 3c62 eabd 83fc b2be 67bb a4be 744e c9be
000000c0: c327 9abe aa43 33be 97e9 cabe cd38 aabe
000000d0: c6c9 42be 79d8 34be c083 98be d654 21be
000000e0: 27a3 1dbb 8be7 063d 6207 74be 22ea 63be
000000f0: 015c 13be ef45 e53c 225d 68bd 414f e43a
00000100: 90a7 3a3e 7c3d 833c 69a1 723e bfd2 49be
00000110: 6cc2 39be cc95 fa3d 2c8c 5bbd 1cf2 0f3d
00000120: 2b64 893c 30b9 de3d deaf 243e 1927 0c3b
00000130: 5aa2 24be 455e fd3c 8fa2 483d 44e6 1d3d
00000140: 08fb f3ba 04d9 5d3d 9f34 1fbe bdde 103e
00000150: a268 aebd 25f1 b0bd 66a6 2bbe 8451 013e
00000160: 5ee3 133d 1a34 993c 0d5a 22bd d438 fdbd
00000170: fbe9 fa3c 2135 6cbe b673 51be 6b1b 2cbe
00000180: 39f3 8d3d f998 033e 8f7e fd3c 2357 143d
00000190: 5229 0abe 3077 4abe 1780 5dbe 568a f7bd
000001a0: e1e1 85be 6458 823d 4c96 febc 3363 e3bd
000001b0: b69e f8bc 5da3 7cbd 81ed 6fbc 27a3 963d
000001c0: 4d8f f23a 3bcd c23d fca0 313e 5a0e bf3d
000001d0: 52a9 6cbd 7f9a 1cbe 5c4e ac3b e4ab ccbd
000001e0: 0beb 8b3d b8c5 c83c 6a79 c83c 12bf cb3b
000001f0: 1641 5fbb a2c9 3bbc c641 153e a81c 993d
00000200: 6dfe db3d 05c5 be3d f1d8 0f3b 3333 0abd
00000210: 9a74 f73d 0e05 7b3d 1425 f83c 2c5d 4a3e
00000220: 69dd 563e 11c4 b3bb 8271 563e ec41 e4bd
00000230: 6725 363e 7999 f43d 06d2 0d3e 5314 1b3e
00000240: 06c9 393e 1b62 013a ef01 413c dccd 0abc
00000250: 09a9 0e3e f32e 043e 81ba 243e 9610 473d
00000260: 7d68 0ebd b3cf 4d3e f6fa 653e 9e79 553d
00000270: e6c9 9f3d d1db 34bd 1d70 4f3e 433f 223e
00000280: 42ab 99bc fda9 1d3e 18e1 f33d 2cfd 753e
00000290: 5b6e 95bd cc9c 6a3d f511 2cbd 4367 5e3e
000002a0: 4344 00be 8fa3 0b3d cf10 af3c e886 cd3d
000002b0: 4238 153e 2261 003e ce80 9e3d b90d 2c3e
000002c0: a564 05be f53d cf3d e283 fcbd bb2c 75bd
000002d0: 4738 a93d 8ab0 6a3d 240a 833d 7a85 16be
000002e0: 9151 8a3d 2286 06be 8170 38be b511 41bd
000002f0: 7f3d 763d f01b afbc 79ce 9e3c 940a 99be
00000300: 71a9 72bd 54cc 033d 78ef dfbc 7e79 963c
00000310: da51 91be 7a3e 8cbe b46d 52be dc71 34be
00000320: 512f e1bd e0d7 4cbe 7bfe fbbd b5be b63d
00000330: a0a6 56bd e0b0 2dbe 4563 463d 4d82 f4bb
00000340: 3c86 13be 953b 123e 60ad f8bd 78c4 d5bd
00000350: 4a15 423e 575f 313d f8c5 1c3e c655 4cbe
0.006521369 0.119373 0.22472502 0.022861695 0.22879818 0.03766142 0.10974316 0.058755167
0.068378806 0.13161482 0.13470854 0.15502775 0.121090166 0.17543931 0.11792814 -0.046599694
0.34675878 -0.011287645 0.12054291 0.12831633 0.06037775 0.062150415 0.00588747 0.064837046
0.09351402 0.16203924 0.16371012 -0.042855565 0.07395646 -0.17580757 -0.19203915 -0.023630254
-0.16882218 -0.13883446 0.09646712 -0.015587166 -0.19875307 0.0010840552 -0.18800016 -0.20889166
-0.06228717 -0.28465742 -0.08182945 -0.14692658 -0.11444518 -0.34958276 -0.32174227 -0.39317667
-0.3010846 -0.1750628 -0.3963134 -0.3324646 -0.19022283 -0.17660703 -0.29788017 -0.15755019
-0.0024053545 0.03293566 -0.23830941 -0.22257283 -0.14390565 0.027987448 -0.056729443 0.0017418639
0.18227983 0.016020529 0.23694386 -0.197093 -0.18140572 0.12235603 -0.053600475 0.035143003
0.016771397 0.108751655 0.16082713 0.0021385609 -0.16077557 0.03092874 0.048983153 0.038549677
-0.0018614242 0.05416204 -0.15547417 0.14147468 -0.08516051 -0.08639745 -0.16762695 0.12628752
0.036105506 0.018701602 -0.03963666 -0.12364355 0.030629149 -0.23067142 -0.20454296 -0.16807334
0.06931157 0.12851323 0.030944137 0.036215913 -0.13492325 -0.19772029 -0.21630894 -0.12086932
-0.26148894 0.063645154 -0.031077527 -0.11102905 -0.030349117 -0.061679233 -0.014644028 0.073553376
0.0018505842 0.09511801 0.17346567 0.09328909 -0.057778664 -0.1529331 0.0052583646 -0.09993723
0.0683194 0.024508342 0.024471957 0.0062178457 -0.0034065894 -0.011461647 0.14575872 0.07476169
0.10741887 0.09314922 0.0021949376 -0.033740234 0.12082787 0.061284117 0.030291118 0.19762105
0.20982899 -0.0054860194 0.20941737 -0.11145386 0.17787705 0.11943335 0.13849649 0.15144472
0.1814309 0.00049355783 0.011780246 -0.008471932 0.1393167 0.12908535 0.1608677 0.048599802
-0.034767617 0.20098762 0.22459015 0.052117936 0.07802181 -0.044154946 0.20257612 0.15844445
-0.01875842 0.15396877 0.119081676 0.24022359 -0.07296439 0.05727844 -0.042009313 0.21719079
-0.1252604 0.03409153 0.02137032 0.10035497 0.14572242 0.12537053 0.07739411 0.1680211
-0.13026674 0.10119239 -0.12329842 -0.05985711 0.08262687 0.057297267 0.063984185 -0.14699355
0.06753839 -0.13137105 -0.18011667 -0.047136027 0.06011724 -0.021375626 0.019385563 -0.29890883
-0.059243623 0.032177284 -0.027335867 0.018368479 -0.2838276 -0.27391416 -0.20549661 -0.17621559
-0.10995353 -0.20004225 -0.12304398 0.08923093 -0.052405 -0.16962004 0.048434515 -0.007461822
-0.14406675 0.14280541 -0.12142444 -0.10437864 0.18953434 0.043303814 0.15309894 -0.19954595

bias f4 [3]
00000000: 4650 9d3d 13bf dd3b e9de 083d
0.076813266 0.0067671626 0.03341571
