results/240113_103535/model1.pth (torch, 9140 bytes, 8 tensors)

weight f4 [8, 3, 3, 3]
0.10274122 0.089670815 0.14746477 -0.11623402 -0.02975701 -0.15285341 -0.034323696 0.17080423
0.030078242 0.12729073 -0.16443048 0.18206942 -0.15910211 -0.028656261 0.11114809 -0.18152782
0.0058221337 -0.039588597 0.023744894 -0.049183767 -0.09430424 -0.12786779 0.03826031 -0.107579716
0.10167683 0.18053001 0.04139063 0.041308913 0.01500137 0.02679866 0.077255085 0.012711155
0.039210446 0.030727565 0.14373294 -0.13938874 0.010321074 -0.076271035 -0.028567567 0.11803498
0.006930087 0.064433716 -0.004163095 -0.06813107 -0.023399092 -0.10643175 -0.15712354 -0.18537636
-0.061665438 -0.1813095 0.038606778 0.16107933 0.15539744 0.080090374 0.0019683868 -0.031919003
-0.07000243 -0.15420972 0.036572665 0.036906626 0.103818424 0.1592895 -0.06924021 -0.07962823
0.1492928 0.09702606 0.19160911 -0.13083538 0.050445158 0.17182788 0.099095024 0.109539226
-0.15601224 0.13562176 0.06289971 -0.05390529 0.102939665 0.17774896 0.121942915 0.07489372
-0.058035534 -0.0041060844 -0.06117836 -0.03467659 0.010212192 -0.067340925 -0.106072895 -0.09564971
-0.16625553 0.032055967 0.09661873 -0.14278619 0.077274814 -0.04069403 0.0799393 -0.037371017
-0.04780549 -0.06970783 -0.14426282 -0.12108991 0.03209265 -0.008899965 -0.034263864 -0.04726262
0.042668447 -0.13344781 -0.11177002 -0.14911349 -0.10657968 -0.117416374 -0.12142732 0.08697182
-0.12447555 0.14611895 0.014480705 -0.1792367 -0.04699161 -0.029618235 0.12940624 -0.045761902
0.18827513 0.029712755 -0.037166767 0.024980312 0.11792869 -0.03351266 -0.16268863 0.11984195
0.1783683 -0.014678716 -0.16721919 -0.18872578 0.15771638 0.1473617 -0.06441892 0.09023271
-0.18058507 0.07869397 -0.10526002 0.084635995 0.16252005 0.03115536 -0.17905346 0.1438401
-0.02108644 -0.0650174 0.17061052 0.10447853 0.043420892 -0.16718754 -0.13303043 0.16977902
-0.07281373 0.1668773 -0.06388561 -0.061928947 -0.14217581 0.077053696 -0.08569594 0.16826116
-0.04629259 -0.009593061 -0.14399858 -0.14547019 0.075753264 0.14312261 0.19048695 -0.0018386048
-0.17341809 -0.02468122 -0.042945173 -0.10207219 0.0009416019 0.06631543 -0.049573828 0.09628633
0.18386796 -0.1766108 -0.059766244 -0.0069037727 -0.033099063 -0.14412318 -0.16314751 0.06655228
0.16386954 -0.010251331 0.17032269 0.1295505 -0.11205787 0.18917698 -0.038376328 0.061287563
-0.051070873 -0.10338331 0.1768799 -0.14865704 0.07887046 -0.17149784 0.014418395 0.14967756
-0.053535607 0.13736059 -0.03622631 0.1034356 -0.14282511 0.1687152 -0.17225568 -0.13636103
-0.11756045 -0.09333951 -0.068309695 0.12014505 -0.18331917 0.095173664 -0.053801455 0.14832261
00000000: fd69 d23d 55a5 b73d 0101 173e 1a0c eebd
00000010: f9c4 f3bc 9b85 1cbe 0197 0cbd 4ee7 2e3e
00000020: a566 f63c 8058 023e 7760 28be 6870 3a3e
00000030: aaeb 22be 89c0 eabc 9ca1 e33d 6ee2 39be
00000040: 99c7 be3b a727 22bd a784 c23c eb74 49bd
00000050: 9522 c1bd c6ef 02be d8b6 1c3d c152 dcbd
00000060: f13b d03d dcdc 383e 3989 293d 8933 293d
00000070: 4ec8 753c dd88 db3c ea37 9e3d 7342 503c
00000080: 229b 203d 60b8 fb3c ba2e 133e ecbb 0ebe
00000090: b919 293c fd33 9cbd 8806 eabc 53bc f13d
000000a0: c915 e33b d3f5 833d 926a 88bb 4d88 8bbd
000000b0: 74af bfbc e4f8 d9bd fee4 20be 4dd3 3dbe
000000c0: e694 7cbd 33a9 39be 2422 1e3d fbf1 243e
000000d0: 8220 1f3e 6c06 a43d 0d00 013b 80bd 02bd
000000e0: 6f5d 8fbd 27e9 1dbe 38cd 153d 672b 173d
000000f0: c19e d43d c91c 233e d0cd 8dbd 2014 a3bd
00000100: 36e0 183e 99b5 c63d 2e35 443e b6f9 05be
00000110: 959f 4e3d a6f3 2f3e 55f2 ca3d 1a56 e03d
00000120: acc1 1fbe 6ee0 0a3e 90d1 803d cbcb 5cbd
00000130: 08d2 d23d d303 363e 35bd f93d e161 993d
00000140: abb6 6dbd 558c 86bb 2996 7abd 0a09 0ebd
00000150: 0a51 273c 0aea 89bd bf3c d9bd ffe3 c3bd
00000160: e43e 2abe 1e4d 033d 0ae0 c53d 8b36 12be
00000170: 4242 9e3d c8ae 26bd 37b7 a33d 5a12 19bd
00000180: b1cf 43bd fbc2 8ebd a2b9 13be fdfd f7bd
00000190: 9573 033d 29d1 11bc 4458 0cbd 7396 41bd
000001a0: 1cc5 2e3d 8ba6 08be aee7 e4bd 35b1 18be
000001b0: 7346 dabd ff77 f0bd e3ae f8bd 481e b23d
000001c0: 0aed febd 35a0 153e 7b40 6d3c d389 37be
000001d0: 467a 40bd f1a1 f2bc 1283 043e d570 3bbd
000001e0: 32cb 403e 2a68 f33c 2e3c 18bd 83a3 cc3c
000001f0: 9984 f13d 9244 09bd d997 26be b26f f53d
00000200: 2ea6 363e ff7e 70bc 823b 2bbe 5541 41be
00000210: 6780 213e fce5 163e 11ee 83bd edcb b83d
00000220: 4beb 38be 4e2a a13d 9192 d7bd a355 ad3d
00000230: a86b 263e 8739 ff3c ca59 37be d24a 133e
00000240: 78bd acbc d827 85bd 86b4 2e3e d7f8 d53d
00000250: 1bda 313d 3633 2bbe 2139 08be 8dda 2d3e
00000260: 5d1f 95bd e2e1 2a3e 75d6 82bd 35a9 7dbd
00000270: 8996 11be 54ce 9d3d 5a81 afbd a74c 2c3e
00000280: 4d9d 3dbd 372c 1dbc 5d74 13be 23f6 14be
00000290: 8724 9b3d bc8e 123e 030f 433e 57fd f0ba
000002a0: 8394 31be 4530 cabc 47e7 2fbd 390b d1bd
000002b0: d5d5 763a 62d0 873d ed0d 4bbd c431 c53d
000002c0: e247 3c3e 76d9 34be 73cd 74bd 0b39 e2bb
000002d0: e292 07bd 0795 13be 2410 27be 904c 883d
000002e0: 6bcd 273e 33f5 27bc 1269 2e3e e3a8 043e
000002f0: 997e e5bd 9cb7 413e 7f30 1dbd ab08 7b3d
00000300: b12f 51bd a1ba d3bd 0120 353e 8d39 18be
00000310: d686 a13d 219d 2fbe 223b 6c3c 1345 193e
00000320: 2748 5bbd 41a8 0c3e 0a62 14bd 0bd6 d33d
00000330: bf40 12be adc3 2c3e cb63 30be 3aa2 0bbe
00000340: 89c3 f0bd c928 bfbd f4e5 8bbd 9c0e f63d
00000350: 05b8 3bbe 69ea c23d ea5e 5cbd e2e1 173e

bias f4 [8]
0.1657904 -0.13932301 0.011616967 -0.1379463 -0.17726938 -0.094780855 -0.19106936 0.10569668
00000000: f5c4 293e b1aa 0ebe 1755 3e3c cb41 0dbe
00000010: 1b86 35be 771c c2bd b0a7 43be 8077 d83d

weight f4 [4, 8, 3, 3]
-0.10943741 0.09257434 0.067212634 0.05280112 -0.057961863 0.012134527 0.021995204 0.067069724
0.071366 0.05966627 0.004168 0.09681754 -0.10422358 -0.028071206 0.012561461 0.03317658
0.050585028 -0.0967045 0.011375407 -0.013426062 -0.003442667 -0.016431287 -0.09189737 -0.078271374
-0.09457497 -0.0037767792 -0.043138143 0.0041899164 0.024054345 -0.088486426 -0.012068188 -0.03318376
0.032429766 0.07628303 -0.075482465 -0.11645386 0.021373833 -0.060278144 0.09782865 -0.014302337
0.08231791 0.003325555 -0.027913028 -0.06270913 -0.100231975 0.06458423 -0.09387698 0.0826626
-0.01635809 -0.06453791 -0.092283405 0.086612515 0.03575296 -0.006258231 -0.012418007 0.07609262
0.0095457 0.111766204 0.01085256 0.10805182 0.05295205 0.0067614783 0.05985614 -0.076162815
0.009213849 -0.08297923 0.11337532 0.00094248785 -0.10397907 -0.07611988 -0.0493761 -0.085507736
0.08550734 -0.029866353 -0.0845758 0.096097484 -0.08201676 -0.0195872 0.066595815 0.046401236
0.034985103 -0.07285423 -0.10988056 -0.049232576 -0.107423835 -0.020153387 -0.11106112 -0.03513492
-0.0043451856 0.046297133 -0.038924582 -0.09805515 -0.055358734 0.010717354 -0.114340395 -0.028767332
0.006059045 -0.07122004 -0.026835278 -0.010827793 -0.041684765 0.09515574 -0.041810293 -0.048426952
0.109541275 -0.062507525 0.060545843 0.06148232 -0.06768347 -0.0165967 -0.06736477 -0.030068222
-0.11346211 -0.06889221 0.093238845 -0.09197822 0.07041048 0.11089197 -0.047640577 0.0048385425
-0.11212863 -0.026645225 -0.07768195 0.050583877 0.025512878 -0.008150231 0.08520893 -0.030159062
-0.01854422 -0.029416338 -0.02406904 -0.03737199 -0.025227979 -0.031332374 -0.023073152 -0.09507958
0.03454509 -0.06701204 0.054785788 0.11546343 -0.05810231 0.09233835 -0.11238787 -0.033227157
-0.05241145 -0.098581396 -0.11635516 0.033159047 -0.02692498 -0.088766135 -0.030812297 -0.006539266
-0.084392026 0.06046689 0.079460494 -0.029792033 -0.07848224 0.07767113 0.06550708 0.07167329
-0.077778205 -0.05697574 -0.11038604 0.003200393 -0.00063029205 0.07136448 0.09659119 -0.10979682
0.06579425 -0.09707816 0.03695489 0.052467644 -0.041286156 0.099669725 0.006490952 0.007993487
0.010806915 -0.105238 -0.056080624 0.04901791 -0.036773857 -0.06070315 -0.010485153 -0.10407884
-0.011640327 0.00038036125 -0.08037505 0.04091331 -0.07260389 0.0852234 -0.08036073 -0.060410526
0.11172272 -0.055997413 0.07562901 -0.05463996 0.048219185 -0.09376962 0.009138055 -0.090817794
0.062667966 0.11655947 0.058098856 -0.02615257 0.07614285 -0.038318664 0.1009638 -0.08817416
-0.10945204 0.06944178 -0.050507113 -0.112603724 -0.014558111 -0.02149221 0.06514456 0.106167614
0.008608466 0.06374655 0.0029780823 -0.062148955 0.063808106 0.058911994 0.011928036 -0.06155681
0.003386373 -0.018007241 -0.019502442 0.04266677 -0.052375145 -0.084982194 0.10889945 -0.06749599
0.08939261 -0.11136917 0.032086395 -0.06802021 0.06654605 0.0040838188 0.027171006 0.04813604
-0.04038348 0.08104578 0.09718762 -0.009921003 -0.047691364 0.0064204824 0.088650614 0.0788313
-0.089627504 0.018998774 0.08197231 0.07714778 -0.07077645 -0.018431548 0.07877778 0.023805158
00000000: b920 e0bd 9e97 bd3d c7a6 893d fd45 583d
00000010: 6b69 6dbd e5cf 463c 492f b43c da5b 893d
00000020: 5628 923d 9e64 743d b893 883b 4648 c63d
00000030: 2c73 d5bd 96f5 e5bc 96ce 4d3c 2ae4 073d
00000040: 3f32 4f3d 020d c6bd ea5f 3a3c fcf8 5bbc
00000050: 5e9e 61bb e89a 86bc b034 bcbd be4c a0bd
00000060: 86b0 c1bd d783 77bb 9fb1 30bd 914b 893b
00000070: 9e0d c53c 5f38 b5bd a6b9 45bc b2eb 07bd
00000080: 13d5 043d 473a 9c3d 8d96 9abd 5d7f eebd
00000090: 2d18 af3c 37e6 76bd 635a c83d 5954 6abc
000000a0: 4b96 a83d 8ef1 593b dda9 e4bc a56d 80bd
000000b0: 6c46 cdbd bd44 843d 9342 c0bd 024b a93d
000000c0: 6701 86bc 742c 84bd 15ff bcbd e761 b13d
000000d0: b271 123d d911 cdbb e574 4bbc 73d6 9b3d
000000e0: 9165 1c3c aee5 e43d f0ce 313c 464a dd3d
000000f0: 40e4 583d 648f dd3b b62b 753d 40fb 9bbd
00000100: aff5 163c 04f1 a9bd 5231 e83d 4a11 773a
00000110: fbf2 d4bd bde4 9bbd 983e 4abd ae1e afbd
00000120: 791e af3d 48aa f4bc 1436 adbd c2ce c43d
00000130: 67f8 a7bd 5675 a0bc 6363 883d 390f 3e3d
00000140: 8a4c 0f3d 9934 95bd 0f09 e1bd 19a8 49bd
00000150: 0701 dcbd b718 a5bc 0374 e3bd a2e9 0fbd
00000160: 0f62 8ebb 10a2 3d3d 626f 1fbd 23d1 c8bd
00000170: d7bf 62bd d797 2f3c 4c2b eabd 78a9 ebbc
00000180: f48a c63b d0db 91bd a8d5 dbbc 0e67 31bc
00000190: a5bd 2abd 03e1 c23d 4541 2bbd 575b 46bd
000001a0: 2d57 e03d f203 80bd ebfe 773d e3d4 7b3d
000001b0: a29d 8abd cdf5 87bc 8af6 89bd a251 f6bc
000001c0: d35e e8bd 5c17 8dbd 02f4 be3d 145f bcbd
000001d0: 5f33 903d 541b e33d c422 43bd a38c 9e3b
000001e0: b2a3 e5bd 1647 dabc b717 9fbd 0a31 4f3d
000001f0: 6200 d13c 8c88 05bc 0582 ae3d 2310 f7bc
00000200: 0cea 97bc 88fa f0bc 6f2c c5bc 5f13 19bd
00000210: e8aa cebc 6056 00bd e803 bdbc 15b9 c2bd
00000220: 277f 0d3d 9c3d 89bd 1067 603d 1778 ec3d
00000230: b0fc 6dbd e41b bd3d 9d2b e6bd 3319 08bd
00000240: 63ad 56bd 0be5 c9bd 9d4b eebd c8d1 073d
00000250: c791 dcbc 05cb b5bd 126a fcbc 5747 d6bb
00000260: bad5 acbd 21ac 773d 2fbc a23d 6c0e f4bc
00000270: 4cbb a0bd 0b12 9f3d 9328 863d 72c9 923d
00000280: 2e4a 9fbd 655f 69bd 1312 e2bd afbd 513b
00000290: 2f3a 25ba 8a27 923d 9ad1 c53d 28dd e0bd
000002a0: 23bf 863d ead0 c6bd 035e 173d 50e8 563d
000002b0: ac1b 29bd a41f cc3d 0db2 d43b 1df7 023c
000002c0: 7d0f 313c 0587 d7bd ccb4 65bd 01c7 483d
000002d0: 2fa0 16bd dea3 78bd ebc9 2bbc 4927 d5bd
000002e0: 12b7 3ebc 396b c739 ad9b a4bd b794 273d
000002f0: 59b1 94bd 9b89 ae3d 2b94 a4bd 0771 77bd
00000300: e2ce e43d 8b5d 65bd 62e3 9a3d 27ce 5fbd
00000310: 7b81 453d 490a c0bd c8b7 153c aefe b9bd
00000320: 1058 803d bbb6 ee3d 11f9 6d3d ea3d d6bc
00000330: c8f0 9b3d 08f4 1cbd 1cc6 ce3d a794 b4bd
00000340: 6428 e0bd 7e37 8e3d 8ce0 4ebd c89c e6bd
00000350: 2585 6ebc 6e10 b0bc 836a 853d 686e d93d
00000360: 860a 0d3c 8d8d 823d ee2b 433b e78f 7ebd
00000370: d3ad 823d b44d 713d cf6d 433c fe22 7cbd
00000380: e9ed 5d3b ec83 93bc 96c3 9fbc 5ac3 2e3d
00000390: 5287 56bd 250b aebd ad06 df3d 563b 8abd
000003a0: 7913 b73d 8515 e4bd 066d 033d 2e4e 8bbd
000003b0: 4c49 883d 8ed1 853b bb95 de3c 4c2a 453d
000003c0: 2669 25bd 54fb a53d 4e0a c73d b48b 22bc
000003d0: 0558 43bd e962 d23b 748e b53d 4e72 a13d
000003e0: a08e b7bd 51a3 9b3c 19e1 a73d a8ff 9d3d
000003f0: 3ef3 90bd c2fd 96bc 3f56 a13d 0903 c33c

bias f4 [4]
0.022625806 -0.010996998 0.015741806 -0.013066521
00000000: c159 b93c c12c 34bc f6f4 803c f614 56bc

weight f4 [4, 8, 3, 3]
0.11159199 0.05895906 -0.03327342 0.08699192 -0.042145558 -0.028821448 0.0686139 0.07711272
0.020813182 0.25389996 0.43134496 1.3153756 -1.120555 -1.1699587 -1.2871702 -1.2373309
-1.2246507 -1.2406305 -0.21239665 0.05672593 -0.6105259 0.35539377 0.35489312 -0.4168971
0.6624152 0.43482694 -0.7570039 0.19659804 -0.3235412 -0.17980328 0.04762294 -0.13742365
0.026841909 0.07415031 0.34818855 0.049590472 -0.17326649 -0.079379566 -0.68137527 0.6495514
0.74157053 -0.3590368 1.1032674 1.0349628 -0.34100503 0.20912525 0.33338645 0.81364775
-1.4115678 -1.1191083 -0.6839269 -0.5476884 -0.49056128 0.5922067 0.24256146 -0.21742122
0.2118924 -0.11305887 -0.3774951 0.3772168 -0.92298794 -0.9096909 -0.25181684 -0.011731097
0.077584304 -0.108162045 0.09053831 -0.0639767 -0.11697282 0.06368241 -0.037479535 -0.0925505
0.07431755 -0.080948934 -0.096672885 0.09699483 0.008460474 0.013583297 -0.03513846 0.099656686
-0.07413129 -0.46025276 -0.6920754 -0.7811233 -0.47678873 -0.5147131 -0.77395076 -0.6902346
-0.60089505 -0.7344382 0.39257365 0.4722522 0.58588076 0.4987398 0.5663039 0.640673
0.52957106 0.51868564 0.75855595 0.06081584 0.047844537 -0.009638801 0.03077423 0.06811935
-0.13880365 -0.14548369 -0.031568334 -0.03774791 0.42331648 0.4316541 0.75251955 0.5642709
0.54443306 0.9172319 0.6175334 0.67485636 0.8283393 -0.108422555 -0.32777053 -0.6457991
-0.16401225 -0.4014954 -0.59281296 -0.3910811 -0.49237806 -0.7526084 -0.61140007 -0.6251027
-0.86412966 -0.63635635 -0.61999065 -0.8332847 -0.5642389 -0.66764534 -0.88671154 0.019146197
-0.12145136 0.055617142 -0.05904499 0.04939066 0.009572483 0.050437763 0.043785714 0.100359865
0.046518095 -0.04770141 -0.024119588 0.05741706 -0.011150595 -0.059534516 -0.07550074 0.056206547
0.02896146 0.14592052 -0.0023835674 -0.28862035 0.9293278 0.27325493 0.14677909 0.6801533
-0.4192981 -0.6799926 -0.44377798 0.34196058 1.2380683 -1.3774365 -1.1713476 0.76511526
-1.8447824 -1.5708816 0.57635015 -0.7558537 -0.038958903 -1.1661803 -0.6957565 0.4799109
-0.49952412 0.0840104 1.2174715 -0.0841358 -1.5520788 -0.4234553 1.0984433 -1.9173743
-1.7493489 0.43030414 -1.9432906 -1.7496943 -0.14414926 0.3148326 0.19196425 -0.016179657
1.0017384 0.33156896 0.53938836 -0.03340159 -1.4642287 -0.4955497 -0.6232806 -1.0623754
-0.92625797 0.62935877 -0.24141252 -0.6715793 0.8131616 0.011967239 -0.5713392 -0.056107245
-0.08509061 -0.0972391 -0.070492804 -0.03531813 0.05079311 -0.08236421 0.062844515 0.09006504
-0.109143645 0.08950035 -0.056358542 0.093006656 -0.002579387 -0.02472264 0.02022012 0.07443629
-0.014598713 -0.110883884 -0.075301975 0.16827853 -0.008443024 0.13161305 0.22402811 0.10043241
0.10791743 0.29352877 0.13202932 0.109228075 0.053497124 -0.004172247 -0.03597146 -0.07418098
0.0011046701 0.046645112 -0.016773479 0.15133706 0.12568484 -0.005410345 0.03159115 -0.02124619
-0.07985395 -0.24976133 -0.33935893 -0.3263051 0.15587407 0.043464333 -0.009846623 -0.05658278
00000000: 578a e43d 0e7f 713d b649 08bd d228 b23d
00000010: d2a0 2cbd f51a ecbc 7285 8c3d 46ed 9d3d
00000020: 6880 aa3c 2dff 813e 3fd9 dc3e 3a5e a83f
00000030: 596e 8fbf 35c1 95bf fec1 a4bf dc60 9ebf
00000040: 5bc1 9cbf fbcc 9ebf 827e 59be 7359 683d
00000050: 6d4b 1cbf 2cf6 b53e 8db4 b53e 8973 d5be
00000060: 0b94 293f a3a1 de3e 02cb 41bf ff50 493e
00000070: 31a7 a5be 5a1e 38be 4610 433d c9b8 0cbe
00000080: 90e3 db3c 1edc 973d c545 b23e 611f 4b3d
00000090: c56c 31be c191 a2bd 9c6e 2ebf 0049 263f
000000a0: 91d7 3d3f acd3 b7be de37 8d3f a979 843f
000000b0: 3698 aebe ee24 563e a1b1 aa3e 384b 503f
000000c0: 41ae b4bf f13e 8fbf d515 2fbf 4f35 0cbf
000000d0: d92a fbbe dc9a 173f 0862 783e aba3 5ebe
000000e0: 52fa 583e 698b e7bd 0a47 c1be 8f22 c13e
000000f0: f048 6cbf 81e1 68bf 23ee 80be c933 40bc
00000100: 85e4 9e3d 1084 ddbd 266c b93d 3706 83bd
00000110: 728f efbd ec6b 823d 2484 19bd 1e8b bdbd
00000120: cd33 983d 8ec8 a5bd 6ffc c5bd 3aa5 c63d
00000130: cd9d 0a3c 7a8c 5e3c 59ed 0fbd ce18 cc3d
00000140: 25d2 97bd 40a6 ebbe da2b 31bf b2f7 47bf
00000150: a71d f4be 3dc4 03bf a321 46bf 37b3 30bf
00000160: 42d4 19bf 2404 3cbf 6aff c83e 0acb f13e
00000170: 48fc 153f d35a ff3e 4bf9 103f 2503 243f
00000180: f891 073f 95c8 043f b930 423f 081a 793d
00000190: a2f8 433d 10ec 1dbc 3d1a fc3c 2882 8b3d
000001a0: 8b22 0ebe adf9 14be cc4d 01bd 8d9d 1abd
000001b0: f0bc d83e c401 dd3e 1fa5 403f 0f74 103f
000001c0: f75f 0b3f b6cf 6a3f ab16 1e3f 63c3 2c3f
000001d0: 0b0e 543f a50c debd 8ad1 a7be 1753 25bf
000001e0: d4f2 27be ce90 cdbe 97c2 17bf c83b c8be
000001f0: fa18 fcbe f2aa 40bf b784 1cbf bb06 20bf
00000200: 9a37 5dbf 40e8 22bf b5b7 1ebf 2552 55bf
00000210: f671 10bf ceea 2abf 87ff 62bf 7cd8 9c3c
00000220: 7ebb f8bd cdce 633d 29d9 71bd dc4d 4a3d
00000230: e7d5 1c3c d497 4e3d a658 333d 7989 cd3d
00000240: c289 3e3d 8e62 43bd 7196 c5bc 272e 6b3d
00000250: fcb0 36bc 77da 73bd 22a0 9abd d638 663d
00000260: 9540 ed3c 306c 153e a035 1cbb 0cc6 93be
00000270: 6de8 6d3f 12e8 8b3e 424d 163e 871e 2e3f
00000280: 3eae d6be ff13 2ebf de36 e3be 7515 af3e
00000290: 0679 9e3f d74f b0bf b8ee 95bf 98de 433f
000002a0: d421 ecbf a612 c9bf af8b 133f a17f 41bf
000002b0: 5f93 1fbd 6545 95bf 191d 32bf e2b6 f53e
000002c0: a0c1 ffbe a50d ac3d 1bd6 9b3f 644f acbd
000002d0: 85aa c6bf 22cf d8be ca99 8c3f 856c f5bf
000002e0: aaea dfbf d350 dc3e bfbd f8bf fcf5 dfbf
000002f0: dd9b 13be bd31 a13e 4792 443e 338b 84bc
00000300: f738 803f 68c3 a93e 5b15 0a3f 1bd0 08bd
00000310: d96b bbbf b1b8 fdbe 518f 1fbf ebfb 87bf
00000320: 3e1f 6dbf a81d 213f d834 77be 9fec 2bbf
00000330: 5c2b 503f 3d12 443c 4943 12bf b6d0 65bd
00000340: fc43 aebd 4b25 c7bd 885e 90bd bea9 10bd
00000350: 700c 503d 91ae a8bd a0b4 803d 0574 b83d
00000360: b486 dfbd f64b b73d 37d8 66bd 467a be3d
00000370: ef0a 29bb 2287 cabc aaa4 a53c 0e72 983d
00000380: 712f 6fbc 1717 e3bd ec37 9abd 3551 2c3e
00000390: 9c54 0abc 92c5 063e a067 653e 82af cd3d
000003a0: d003 dd3d 6749 963e b232 073e f8b2 df3d
000003b0: cd1f 5b3d 58b7 88bb cf56 13bd 33ec 97bd
000003c0: 94ca 903a f20e 3f3d 8968 89bc 1af8 1a3e
000003d0: 87b3 003e 4349 b1bb b965 013d 7d0c aebc
000003e0: 788a a3bd 6fc1 7fbe 74c0 adbe 7611 a7be
000003f0: 749d 1f3e a807 323d bb53 21bc 58c3 67bd

bias f4 [8]
-0.08075336 -0.04043234 0.028786039 0.068269946 0.09946103 0.03813571 0.067670405 -0.06859442
00000000: 0562 a5bd 629c 25bd b3d0 eb3c 1dd1 8b3d
00000010: 39b2 cb3d 3134 1c3d c896 8a3d 3b7b 8cbd

weight f4 [8, 3, 3, 3]
-0.12021154 0.06081551 -0.097420156 -0.05873329 0.08046033 -0.13805157 -0.16106476 0.14036109
0.18830304 -0.011683085 -0.00063154293 -0.07759632 -0.041379645 -0.08102057 -0.14977972 0.01949742
0.07664384 -0.16730675 -0.17607506 0.11618972 0.032292105 0.10958137 -0.17064556 -0.07632688
-0.04790958 -0.18722959 -0.026204191 0.041939836 0.2676754 0.29933652 0.050706655 0.12475741
0.18166655 0.3713412 0.3969067 0.28708798 0.043456353 0.27850872 0.4378958 0.19183333
0.073982574 0.4112782 0.3715799 0.48982075 0.372882 0.33752722 0.18589659 0.30032048
0.16774976 0.26052767 0.3465353 0.42685685 0.47872844 0.55610377 -0.08275702 -0.33920217
-0.53012073 -0.18524976 -0.4017519 -0.5639333 -0.44779453 -0.4788995 -0.2954043 0.07934491
-0.15038355 -0.14088894 -0.25227877 -0.20408091 -0.3215449 -0.3221891 -0.13006602 -0.3649892
-0.06461731 -0.21233392 -0.15452652 -0.13354695 -0.1631398 -0.31784305 -0.40804496 -0.39350215
-0.24246922 0.1260188 0.05255216 0.058765132 0.30256376 -0.04436878 0.19588906 0.22137696
-0.09233422 0.28311586 0.08770541 0.27873388 0.17093445 0.35183 -0.04380419 -0.107381895
0.2065344 0.02448149 0.061295874 0.037472535 -0.05041567 -0.0050492664 0.013675883 0.0939363
0.086227916 -0.21269403 -0.2687237 -0.045317806 -0.042008214 0.11251944 -0.032079183 0.0029235743
-0.10259527 -0.29776192 -0.19160374 -0.28861678 -0.33306998 -0.13862005 0.096493445 -0.24200533
-0.05191615 -0.34518492 -0.43148825 -0.35041702 -0.33021846 -0.25871688 -0.22502457 -0.021780772
-0.19584896 -0.10624259 -0.16393702 -0.3943857 -0.16887255 -0.22127445 -0.27577138 -0.17797871
-0.13145049 0.13094375 -0.22385198 0.09752601 0.099778846 0.057796143 0.18074553 0.3559855
-0.072920546 0.05130582 0.33811608 0.07014467 0.03107462 0.16845974 0.07542996 0.33445287
0.5335734 -0.018245775 0.23444861 0.24844106 0.051763333 0.06387059 0.29631746 0.078263685
0.30663875 0.24298142 0.17615475 0.31400326 0.2210577 0.40591136 0.47211838 0.5014164
0.14382604 0.17779857 0.20419818 0.22029229 0.20094761 0.33115575 0.21156605 0.22528435
0.21312058 0.337719 0.09156765 0.22819857 0.1959819 0.3179038 0.13043025 0.069103815
0.1576282 0.47071955 0.32325295 0.33695465 0.29217437 -0.13576007 -0.03531651 0.07634262
0.11437375 0.17575665 -0.011980945 0.041825213 -0.112239905 -0.17310585 0.038545385 -0.039752748
0.031255595 -0.011449675 0.08282915 -0.11579765 -0.056111608 0.0976582 -0.14538215 0.063812494
-0.15146728 0.13012423 0.1221602 -0.16307531 -0.09028949 0.022667041 0.09304845 0.042863157
00000000: 7831 f6bd af19 793d 3884 c7bd 5192 70bd
00000010: 63c8 a43d 645d 0dbe 29ee 24be d1ba 0f3e
00000020: 83d2 403e 696a 3fbc 218e 25ba d2ea 9ebd
00000030: b47d 29bd 1dee a5bd db5f 19be 0eb9 9f3c
00000040: 72f7 9c3d 7652 2bbe 054d 34be e0f4 ed3d
00000050: ba44 043d 336c e03d b6bd 2ebe 4451 9cbd
00000060: d63c 44bd 1db9 3fbe 2caa d6bc 1bc9 2b3d
00000070: c00c 893e a342 993e c8b1 4f3d d080 ff3d
00000080: cc06 3a3e 6f20 be3e 5b37 cb3e 32fd 923e
00000090: 4aff 313d b298 8e3e e133 e03e f56f 443e
000000a0: 2d84 973d 0e93 d23e b83f be3e c9c9 fa3e
000000b0: 64ea be3e 5ed0 ac3e ad5b 3e3e 9bc3 993e
000000c0: 98c6 2b3e e263 853e 136d b13e fb8c da3e
000000d0: e51b f53e d15c 0e3f 837c a9bd e8ab adbe
000000e0: feb5 07bf 1db2 3dbe 6db2 cdbe ef5d 10bf
000000f0: 5345 e5be 5132 f5be 3b3f 97be 967f a23d
00000100: 25fe 19be 3145 10be af2a 81be 96fa 50be
00000110: 88a1 a4be f8f5 a4be 0730 05be dddf babe
00000120: 1556 84bd 106e 59be 333c 1ebe 88c0 08be
00000130: 1f0e 27be 53bc a2be 45eb d0be 1d79 c9be
00000140: da49 78be 130b 013e ef40 573d b5b3 703d
00000150: a3e9 9a3e 0abc 35bd 2497 483e a4b0 623e
00000160: b919 bdbd 90f4 903e e59e b33d 35b6 8e3e
00000170: 7109 2f3e 1023 b43e 066c 33bd 0aeb dbbd
00000180: c17d 533e 688d c83c 6211 7b3d cd7c 193d
00000190: a980 4ebd 5174 a5bb d010 603c ad61 c03d
000001a0: 4398 b03d 77cc 59be 2796 89be 2a9f 39bd
000001b0: ce10 2cbd 9870 e63d 7665 03bd 7099 3f3b
000001c0: 781d d2bd 4074 98be c533 44be 94c5 93be
000001d0: 2688 aabe 6af2 0dbe 5b9e c53d 3fd0 77be
000001e0: 07a6 54bd 14bc b0be 07ec dcbe dc69 b3be
000001f0: 6512 a9be 8a76 84be d76c 66be 976d b2bc
00000200: a18c 48be b795 d9bd 1bdf 27be ecec c9be
00000210: edec 2cbe c595 62be e831 8dbe 0d40 36be
00000220: f59a 06be 1e16 063e 7439 65be b7bb c73d
00000230: da58 cc3d a6bb 6c3d 5b15 393e bb43 b63e
00000240: 5e57 95bd 0d26 523d 8d1d ad3e 02a8 8f3d
00000250: 3490 fe3c b680 2c3e 067b 9a3d 683d ab3e
00000260: 4498 083f 2a78 95bc 4c13 703e 5567 7e3e
00000270: ca05 543d 95ce 823d ecb6 973e b648 a03d
00000280: c1ff 9c3e 1fd0 783e e961 343e 09c5 a03e
00000290: f35c 623e 9dd3 cf3e 80b9 f13e d35c 003f
000002a0: 2247 133e d410 363e 5419 513e 4d94 613e
000002b0: 36c5 4d3e 3f8d a93e c5a4 583e f1b0 663e
000002c0: 483c 5a3e 81e9 ac3e d287 bb3d e3ac 693e
000002d0: 7baf 483e 49c4 a23e 828f 053e 4d86 8d3d
000002e0: 4969 213e 2702 f13e 6981 a53e 5285 ac3e
000002f0: e197 953e b004 0bbe 0ba8 10bd 8559 9c3d
00000300: c93c ea3d 8df9 333e ba4b 44bc ea50 2b3d
00000310: 09de e5bd a942 31be c4e1 1d3d c7d3 22bd
00000320: de05 003d 6b97 3bbc 54a2 a93d 5127 edbd
00000330: 49d5 65bd 0601 c83d 0fdf 14be 20b0 823d
00000340: 3d1a 1bbe 493f 053e 202f fa3d 37fd 26be
00000350: b2e9 b8bd 3bb0 b93c 3090 be3d 4791 2f3d

bias f4 [3]
0.11536623 0.062762775 -0.06409434
00000000: 2145 ec3d c589 803d e543 83bd
