results/240103_231513/model1.pth (torch, 17078 bytes, 20 tensors)

weight f4 [8, 3, 4, 4]
0	0x3d91f092	0.07125963
1	0x3dd456df	0.10368132
2	0x3e0f0651	0.13967253
3	0x3db735cf	0.0894581
4	0x3c3d7ea5	0.011565839
5	0x3e75a650	0.23989224
6	0x3e4f6ce1	0.20256378
7	0x3dde51fa	0.108554795
8	0xbda02c1b	-0.078209125
9	0x3ddb205f	0.10699534
10	0x3e53e73b	0.20693676
11	0x3cad37f9	0.021144854
12	0xbe36d970	-0.17856383
13	0x3d179788	0.037009746
14	0x3dd41035	0.10354654
15	0x3d2275ae	0.03966301
16	0x3d976dd8	0.07393998
17	0x3ddedecf	0.10882341
18	0x3de95bb6	0.113944456
19	0xbdc5a413	-0.09650435
20	0xbc8d866b	-0.01727601
21	0x3d6e0203	0.058107387
22	0x3dd664f9	0.10468478
23	0xbcf9e1a7	-0.030503107
24	0xbd7bff54	-0.061522797
25	0xbdbf8de2	-0.09353234
26	0xbd81f39d	-0.06345294
27	0xbcc81ae8	-0.024426892
28	0x3c8b2315	0.016984502
29	0xbc8f8d36	-0.01752339
30	0xbc7b0e9e	-0.015323309
31	0xbd6a524f	-0.0572074
32	0xbcdf2c24	-0.027242728
33	0xbd707cda	-0.058712818
34	0x3df2efdf	0.11862158
35	0x3cda4a2c	0.026646696
36	0xbdf855ae	-0.12125717
37	0xbd54a2bc	-0.051913008
38	0xbc497118	-0.01229503
39	0xbdeda88c	-0.116044134
40	0x3dc8f1db	0.09811755
41	0x3dbef94d	0.09324894
42	0xbd30ac43	-0.04313303
43	0xbd1ad48b	-0.037800353
44	0xbdc289c8	-0.09498936
45	0x3d8a0c17	0.06740587
46	0x3e1d0ca0	0.15336847
47	0xbdcfb6d0	-0.101422906
48	0x3d70d8c4	0.058800474
49	0x3e230048	0.15918076
50	0x3e2a80bf	0.16650675
51	0x3da5c76f	0.080946796
52	0x3e3fab0f	0.18717597
53	0x3e32a657	0.17446266
54	0x3df6fb66	0.12059669
55	0x3bec4af9	0.007211086
56	0xbd268995	-0.040658552
57	0x3cde1895	0.027111331
58	0x3de91a2f	0.11381947
59	0x3d688653	0.056768727
60	0x3e271dbf	0.16319941
61	0xbce2e545	-0.027697215
62	0xbdc2df0b	-0.09515198
63	0xbbd76f73	-0.006574565
64	0xbe0132a4	-0.12616974
65	0xbd32741f	-0.043567773
66	0xbd4ee7f2	-0.05051417
67	0x3de1127b	0.10989853
68	0xbd85f4ee	-0.06540857
69	0x3dccc96e	0.09999357
70	0xbd033352	-0.032031365
71	0x3e078f3a	0.1323823
72	0xbd233166	-0.039842032
73	0xbdc4826b	-0.09595188
74	0x3e09dc29	0.1346289
75	0xbda5af53	-0.08090081
76	0xbd5b9d16	-0.053616606
77	0xbd934c2d	-0.07192264
78	0xbd275542	-0.040852793
79	0xbdcebaea	-0.10094245
80	0x3d05103e	0.032486193
81	0x3b0b5a28	0.0021263454
82	0x3c20f04b	0.009822915
83	0x3d41c11f	0.047303315
84	0xbdd7caf0	-0.10536754
85	0x3dbc1f80	0.09185696
86	0xbc374bea	-0.011187533
87	0x3c2d67a9	0.010583797
88	0x3c5c8a34	0.013460685
89	0x3d8ddd02	0.069269195
90	0x3daa4070	0.08313072
91	0x3cd9c02b	0.02658089
92	0x3d81f34c	0.06345233
93	0xbde84ae3	-0.113424085
94	0xbdaba78c	-0.083815664
95	0x3b762b72	0.0037562517
96	0xbdb142b7	-0.08655303
97	0x3cc57e74	0.02410815
98	0xbdc2772c	-0.094953865
99	0x3d283922	0.04107011
100	0x3db1bfda	0.08679171
101	0x3d1ee800	0.03879547
102	0xbe01652c	-0.1263625
103	0xbc894e74	-0.016761042
104	0xbda09879	-0.07841582
105	0xbd85716c	-0.06515774
106	0xbe03eb13	-0.12882642
107	0xbe13d868	-0.14438021
108	0x3d17b231	0.03703517
109	0xbd6adb64	-0.057338133
110	0x3d9e52cc	0.07730636
111	0x3baf3b47	0.0053476426
112	0xbde1bc08	-0.11022192
113	0xbda49b83	-0.08037474
114	0x3de88152	0.11352791
115	0xbe2b1adb	-0.16709463
116	0x3d313c02	0.04327012
117	0xbdbdb3f3	-0.09262838
118	0xbabffab0	-0.0014646854
119	0xbe1dc5ab	-0.15407436
120	0xbdc00a4e	-0.093769655
121	0x3d9ffe50	0.07812178
122	0x3befdcce	0.007320023
123	0x3ceab830	0.02865228
124	0xbe0f02f4	-0.1396597
125	0x3ccfbcb1	0.02535853
126	0xbdc11835	-0.09428445
127	0x3cfa3479	0.030542599
128	0x3d60b47a	0.054859616
129	0x3d33217a	0.043733098
130	0xbd590f98	-0.052993387
131	0x3d0408c9	0.03223494
132	0xbdd97dc4	-0.10619691
133	0xbd13a441	-0.036045317
134	0x3bd23199	0.006414604
135	0xbdad8097	-0.08471792
136	0xbd12b53a	-0.035817362
137	0xbd09555c	-0.03352867
138	0x3d639326	0.055560254
139	0x3d8be4ca	0.068307474
140	0x3e2030b1	0.15643574
141	0xbd09b6ee	-0.03362172
142	0xbd4a655d	-0.049413074
143	0xbce588e0	-0.028019369
144	0xbdda5e7d	-0.106625535
145	0xbe0095bf	-0.12557124
146	0xbdb016ed	-0.08598123
147	0xbdeeec28	-0.11666137
148	0xbd745e39	-0.05966017
149	0xbce1b61d	-0.027552659
150	0x3e10de5b	0.14147322
151	0xbd887c21	-0.06664301
152	0x3cf4b286	0.029870283
153	0x3dfff717	0.124983005
154	0x3ca37921	0.01995522
155	0x3c300880	0.010744214
156	0xbdfe2164	-0.124087125
157	0xbd478eb8	-0.04872009
158	0x3da71364	0.08157995
159	0x3b5ec5be	0.0033992375
160	0xbd1c2540	-0.038121462
161	0x3db2983e	0.08720444
162	0x3da1f1a4	0.079074174
163	0x3dfbc40d	0.12293253
164	0xbd14405c	-0.03619419
165	0x3e110294	0.1416114
166	0x3e1a5e6c	0.15075082
167	0x3e7a42cd	0.24439545
168	0x3e2a22e7	0.16614877
169	0x3e4bae26	0.19890651
170	0x3e33f6a2	0.17574552
171	0x3df19926	0.11796789
172	0x3e016963	0.12637858
173	0x3d617ecb	0.05505256
174	0x3bf7dc20	0.0075640827
175	0x3d580b03	0.052744877
176	0xbd5e2909	-0.054238353
177	0xbe18b6d9	-0.14913501
178	0x3c9d5937	0.01920758
179	0xbdad9476	-0.08475582
180	0x3c8806b9	0.016604768
181	0xbe185953	-0.14877824
182	0x3de0ca93	0.10976138
183	0x3d70ec13	0.058818888
184	0x3d7f6c4d	0.062359143
185	0xbd9c1dee	-0.07622896
186	0x3ce1f6ec	0.027583562
187	0xbd81edde	-0.06344198
188	0x3d2d7e58	0.04235682
189	0x3c314dcc	0.010821771
190	0x3abd5788	0.0014445642
191	0xbd8d66b8	-0.06904358
192	0xbe169642	-0.14705756
193	0xbda1bb45	-0.07897047
194	0xbdd797d0	-0.10527003
195	0xbd449310	-0.047991812
196	0xbd2b38e6	-0.04180231
197	0x3d49a725	0.049231667
198	0x3c2aa187	0.010414488
199	0xbe2dfab8	-0.16990173
200	0xbd2f211c	-0.042756185
201	0x3da3a9d9	0.0799138
202	0x3d21951c	0.039448842
203	0xbe3b45d7	-0.1828836
204	0xbda9db30	-0.0829376
205	0xbe053456	-0.13008246
206	0xbd35f135	-0.044419486
207	0xbe35e2d3	-0.17762308
208	0xbda0da99	-0.07854194
209	0x3dd16b49	0.10225541
210	0xbdce3882	-0.10069372
211	0xbd168ee9	-0.036757383
212	0xbe03dbab	-0.12876765
213	0x3c2b6c9e	0.010462908
214	0x3dd238bb	0.10264727
215	0x3da1daf5	0.07903091
216	0x3d905d7f	0.07049083
217	0x3d094271	0.03351063
218	0x3e1bd386	0.15217409
219	0xbdef536d	-0.11685834
220	0xbd7c6623	-0.061620843
221	0xbd883c3f	-0.06652116
222	0x3d45b1ec	0.048265383
223	0xbd826faf	-0.06368958
224	0xbbd2ca79	-0.006432828
225	0xbe0f2541	-0.13979055
226	0x3d476314	0.048678473
227	0xbcb7fc02	-0.022459034
228	0x3da65486	0.0812159
229	0xbdb5f358	-0.08884305
230	0xbd3be189	-0.045869384
231	0xbc7245e5	-0.014787172
232	0x3d56caf1	0.052439634
233	0xbd5073f9	-0.05089185
234	0x3dab795f	0.08372759
235	0xbd806689	-0.06269557
236	0x3d5804d4	0.05273898
237	0xbd86a2ac	-0.06573996
238	0xbdda072e	-0.10645901
239	0x3ca2d238	0.01987563
240	0xbc97d1fa	-0.018532742
241	0xbd12564b	-0.035726827
242	0x3da50cca	0.0805908
243	0xbd3a66bb	-0.045508128
244	0xbdb53c6d	-0.08849416
245	0xbdda7454	-0.10666719
246	0x3ca7f72b	0.020503601
247	0x3cf1c987	0.029515041
248	0xbdcc60a6	-0.09979372
249	0x3daafc1c	0.08348867
250	0xbd2b6919	-0.041848276
251	0xbc5da6cb	-0.013528536
252	0xbe0b35d8	-0.13594759
253	0x3d61bc19	0.055111025
254	0x3c9d004f	0.019165186
255	0xbdfbbb66	-0.12291603

bias f4 [8]
0	0xbe042f08	-0.12908566
1	0x3dd86b0f	0.10567295
2	0xbddb6565	-0.10712699
3	0xbce35a3e	-0.027752992
4	0xbe08f09d	-0.13373037
5	0xbc8d043f	-0.017213939
6	0x3b89f1bf	0.0042097266
7	0xbcd6a027	-0.026199413

weight f4 [8]
0	0x3f797b80	0.9745407
1	0x3f6f622f	0.9350919
2	0x3f81d4d1	1.0143071
3	0x3f65204b	0.895024
4	0x3f846f69	1.03465
5	0x3f865e77	1.0497578
6	0x3f827e83	1.0194858
7	0x3f81a4cc	1.0128417

bias f4 [8]
0	0x3debc8a1	0.11512876
1	0x3d9e0631	0.07716025
2	0xbd2e9a15	-0.042627413
3	0x3d1460d0	0.03622514
4	0xbe306c8a	-0.17228904
5	0xbd9f999e	-0.07792972
6	0xbe33d767	-0.17562638
7	0x3dc884ef	0.0979098

running_mean f4 [8]
0	0xbe477dfc	-0.19481653
1	0x3cfcca3a	0.030858148
2	0x3be5a5d1	0.0070082922
3	0xbe0b19f0	-0.13584113
4	0x3b54c845	0.0032468003
5	0x3e4e47f4	0.20144635
6	0xbe7ca61a	-0.24672738
7	0xbe3c0e23	-0.18364768

running_var f4 [8]
0	0x3ebc867c	0.36821353
1	0x3e88bbc1	0.26705745
2	0x3ea3e090	0.32007265
3	0x3eae894e	0.3408913
4	0x3eee167d	0.46501532
5	0x3f370e72	0.71506417
6	0x3ea6c493	0.3257185
7	0x3ea3ea0b	0.32014498

weight f4 [3, 8, 4, 4]
0	0x3b286229	0.0025693274
1	0x3cc6ea97	0.024281783
2	0xbc983368	-0.0185792
3	0xbc5e3435	-0.013562252
4	0x3db272f5	0.087133326
5	0x3d4e0b77	0.050303902
6	0xbccedfe0	-0.025253236
7	0x3cb02bc2	0.02150524
8	0x3d0c43f4	0.034244493
9	0x3e244542	0.16042045
10	0x3d9d0493	0.07666888
11	0x3d379069	0.044815455
12	0x3d3e78a4	0.04650177
13	0x3dec3460	0.11533427
14	0xbd446294	-0.047945574
15	0xbd1e6f07	-0.038680103
16	0xbccb3d0a	-0.02480938
17	0xbcbf9ad4	-0.023389257
18	0xbc8a2247	-0.016862048
19	0x3d26c9e6	0.04071989
20	0xbda5e28b	-0.0809985
21	0x3d0aa03c	0.033844218
22	0x3d3f3905	0.046685237
23	0x3d137aac	0.03600566
24	0x3e23acd8	0.15983903
25	0x3e1e3f15	0.15453751
26	0x3b8f8930	0.0043803677
27	0x3c117cef	0.008879884
28	0x3ce1a636	0.027545076
29	0x3d80df16	0.0629255
30	0x3a99ceab	0.0011734565
31	0x3d2dc6ab	0.042425793
32	0x3d123268	0.035692602
33	0x3d9271a1	0.07150579
34	0xbcade770	-0.021228522
35	0x3d7dc8f5	0.061959226
36	0x3b25480d	0.0025219948
37	0x3bf5c70f	0.0075005363
38	0xbcb431d8	-0.021996424
39	0x3d90642e	0.07050358
40	0xbc0bcef3	-0.008533227
41	0xbe2ec8fe	-0.1706886
42	0xbd7182bb	-0.058962565
43	0x3c827a39	0.01592742
44	0xbcc11a36	-0.023572069
45	0x3a7ee025	0.0009722731
46	0x3c8240f5	0.015900115
47	0xbd9c92fe	-0.07645224
48	0xbcd3c0a7	-0.0258487
49	0xbc828b21	-0.015935482
50	0xbd346862	-0.04404486
51	0xbd18e110	-0.03732401
52	0xbb829243	-0.003984721
53	0x3c81cb05	0.015843878
54	0x3c05a142	0.008156123
55	0xbd0714a3	-0.032978665
56	0x3d526193	0.051362585
57	0x3dd82aab	0.10555013
58	0x3d15cf8e	0.036574893
59	0x3c89f607	0.016840948
60	0x3c2782f5	0.010224094
61	0x3caf2fe8	0.021385148
62	0xbe0a8a06	-0.13529214
63	0x3d1d0af7	0.038340535
64	0xbc8466f2	-0.01616237
65	0xbd7bff80	-0.06152296
66	0x3c243a32	0.0100236405
67	0xbd90682b	-0.070511185
68	0xbdfacd3b	-0.12246176
69	0xbdfe94d7	-0.12430733
70	0x3c471dce	0.012153102
71	0xbc9ae274	-0.01890681
72	0xbdad673b	-0.08466955
73	0xbd8b96c2	-0.06815864
74	0xbd00abc6	-0.031413816
75	0x3c4a95ef	0.0123648485
76	0xbd833fff	-0.06408691
77	0xbdedb3bd	-0.11606548
78	0x39696b42	0.00022260568
79	0xbd01fa42	-0.031732805
80	0x3d0f0f34	0.03492661
81	0x3cc96287	0.024583114
82	0xbbdeac69	-0.0067954552
83	0x3d59d1b5	0.053178508
84	0x3a5704cf	0.00082023157
85	0xbcd07b46	-0.025449406
86	0xbdb737d8	-0.08946198
87	0x3c81edd4	0.015860476
88	0x3b89d57d	0.004206358
89	0xbdf304bf	-0.118661396
90	0xbca6752f	-0.02031955
91	0xbcd852c0	-0.026406646
92	0x3cc088aa	0.023502667
93	0xbdbfc188	-0.09363085
94	0xbcce94f2	-0.025217507
95	0x3d7c8499	0.061649892
96	0xbd76872c	-0.060187504
97	0x3c1b5e13	0.009482878
98	0x3c54034d	0.01294024
99	0x3ce475cb	0.0278882
100	0x3b8766e3	0.004132138
101	0x3bc117f8	0.00589275
102	0xbe0e4756	-0.138944
103	0xbbf461d2	-0.00745795
104	0x3d02f402	0.031970985
105	0x3d1eaa78	0.03873679
106	0xbd5216f7	-0.051291432
107	0x3dae173d	0.08500526
108	0xbdaac70c	-0.083387464
109	0xbd7de888	-0.061989337
110	0x3c2076a4	0.009793911
111	0xbc373196	-0.011181256
112	0xbbc5a947	-0.0060321423
113	0x3d000932	0.03125877
114	0x3ce67b5d	0.028134996
115	0x3cf98789	0.030460136
116	0xbd9568fb	-0.07295414
117	0xba2f5211	-0.0006687949
118	0xbd7feaeb	-0.062479895
119	0xbd752fb3	-0.059859943
120	0xbd9dbcdf	-0.0770204
121	0x3e2f7f34	0.17138368
122	0x3d91f5c4	0.07126954
123	0x3bf1583f	0.007365256
124	0xbc17448d	-0.009232652
125	0x3e0fedd8	0.14055574
126	0xbd4990b7	-0.049210276
127	0xbd6d9577	-0.05800387
128	0xbd1d90a7	-0.03846803
129	0xbbd164af	-0.0063901762
130	0xbd885ef8	-0.06658739
131	0xbd1b121c	-0.037859067
132	0x3e2a8737	0.16653143
133	0x3d7feb4c	0.062480256
134	0x3cd9c035	0.02658091
135	0xbdaddb5f	-0.08489107
136	0xbc6f1411	-0.014592187
137	0x3ddca914	0.107744366
138	0x3d1ad403	0.037799846
139	0xbd32b6a5	-0.043631215
140	0x3c4ded1d	0.012568739
141	0xbd4fe319	-0.050753687
142	0x3a0851a6	0.0005200155
143	0x3b617cf1	0.0034406746
144	0x3cb300cc	0.021850966
145	0xbd858662	-0.06519772
146	0xbd59a7b9	-0.05313847
147	0x3bbec0e2	0.0058213333
148	0x3dd4c0af	0.10388314
149	0x3d935077	0.07193082
150	0x3cd1252a	0.025530417
151	0xbd78489a	-0.060616113
152	0x3d2d8bad	0.042369533
153	0x3d553cc4	0.052059904
154	0x3cd4c5a0	0.025973141
155	0xbda78211	-0.08179105
156	0xbd36ea50	-0.04465705
157	0xbdb515ab	-0.088420235
158	0x3d4137af	0.047172245
159	0x3bb42077	0.005497034
160	0xbc615c9b	-0.013754989
161	0xbdc92d4c	-0.09823093
162	0x3e11f96b	0.14255302
163	0xbd5b1d81	-0.053494934
164	0xbddc0f6c	-0.10745129
165	0xbe4d44d6	-0.2004579
166	0xbd3bc839	-0.045845244
167	0xbc5a27b5	-0.013315131
168	0xbd2bef85	-0.04197647
169	0xbd9c4448	-0.07630211
170	0x3d40ada7	0.047040608
171	0xbd0432a2	-0.03227485
172	0xbcd2d123	-0.02573449
173	0x3d45cf4b	0.048293393
174	0x3d83e974	0.06441012
175	0xbd269393	-0.04066808
176	0xbd3c8f94	-0.046035364
177	0xbcb4a2ee	-0.022050347
178	0x3d321e01	0.043485645
179	0x3d78d6bd	0.060751665
180	0x3e440de9	0.19145931
181	0x3dd94be9	0.10610182
182	0x3e432436	0.19056782
183	0x3d254efd	0.040358532
184	0x3cc420d6	0.023941439
185	0xbc9bec22	-0.019033495
186	0x3c218a74	0.00985967
187	0x3c931ca6	0.017957997
188	0x3d29723a	0.0413687
189	0x3d7cf356	0.0617555
190	0x3d5d40bc	0.054016814
191	0xbba36f4e	-0.004987634
192	0xbd81aa0c	-0.06331262
193	0xbbac9922	-0.0052672783
194	0x3d372eea	0.044722475
195	0x3d3e61d1	0.046480004
196	0xbc5044a1	-0.012711675
197	0xbdedcf87	-0.11611848
198	0x3cba3170	0.022728652
199	0xba88d9a8	-0.0010440843
200	0x3b0d2748	0.0021538306
201	0x3d1c526f	0.038164552
202	0xbd90ca77	-0.07069867
203	0x3b0ee5c6	0.0021804436
204	0x3db7d31b	0.08975812
205	0x3d8bbdfb	0.06823345
206	0x3d502c9f	0.050823804
207	0xbd371fdb	-0.044708114
208	0xb80d9044	-3.3751377e-05
209	0xbe0a6ee3	-0.13518862
210	0xbc900ad6	-0.017583292
211	0xbca9cb7e	-0.020726915
212	0xbdd4dc1d	-0.10393546
213	0xbe3045b7	-0.17214094
214	0xbce7e727	-0.028308464
215	0x3d67e01e	0.05661022
216	0xbcfd19b0	-0.030896038
217	0xbd5f8cb5	-0.054577548
218	0xbcb4ad41	-0.02205527
219	0x3c615ad2	0.013754563
220	0x3d0eaa47	0.034830358
221	0xbd99e05c	-0.07513496
222	0xbcb127b1	-0.021625372
223	0x3c2bc710	0.010484472
224	0xbdc3e2bd	-0.09564731
225	0x3d98861a	0.07447453
226	0x3d1f4d73	0.03889222
227	0xbd691fb3	-0.056914996
228	0xbdb39065	-0.087677754
229	0x3d239c7b	0.039944153
230	0x3da3f294	0.080052525
231	0x3c8dde80	0.01731801
232	0xbdda335f	-0.106543295
233	0xbddacc0f	-0.10683452
234	0xbdc3ee06	-0.09566884
235	0xbcc4fe47	-0.02404703
236	0xbb92b9b0	-0.004477702
237	0xbc91c8e6	-0.017795991
238	0x3d1a41e8	0.03766051
239	0xbc998bdb	-0.018743446
240	0xbc9df919	-0.019283818
241	0xbd0bc5b3	-0.034124088
242	0x3d107fdf	0.035278197
243	0xbcc0f11b	-0.023552468
244	0x3d664a58	0.056223243
245	0x3e013a40	0.12619877
246	0x3e2c60d1	0.16833808
247	0xbc9124f5	-0.017717818
248	0xbe1718f5	-0.14755614
249	0xba0db6fe	-0.0005405991
250	0x3d65533c	0.05598758
251	0x3c047ee8	0.008086897
252	0x3cde5f82	0.027145151
253	0x3c778563	0.0151074855
254	0xbd673e08	-0.056455642
255	0x3d4f6d0b	0.0506411

bias f4 [3]
0	0xbbe626ea	-0.007023682
1	0x3d1a10d9	0.037613723
2	0xbd3ece04	-0.04658319

weight f4 [3]
0	0x3f76d727	0.96422046
1	0x3f7dc44d	0.99127656
2	0x3f817461	1.0113641

bias f4 [3]
0	0x3e1e5f54	0.15466052
1	0x3e2a21fa	0.16614524
2	0x3e4cbe71	0.19994523

running_mean f4 [3]
0	0x3d414f16	0.047194563
1	0x3bf361cf	0.007427431
2	0xbd849ae8	-0.064748585

running_var f4 [3]
0	0x3f6d00eb	0.92579526
1	0x3f460ec5	0.77366287
2	0x3f4c2693	0.7974636

weight f4 [3, 8, 4, 4]
0	0x3c3c8899	0.011507177
1	0xbc35c4fd	-0.011094329
2	0xbd5e7f86	-0.054320835
3	0xbc4edd86	-0.0126260575
4	0x3d119f59	0.035552356
5	0x3d0629c9	0.032754693
6	0xbcc109dc	-0.023564272
7	0x3c7785b7	0.015107564
8	0x3da8f90b	0.08250626
9	0x3e1b8c38	0.15190208
10	0xbade857a	-0.0016977035
11	0x39a7c857	0.00032001987
12	0x3d845772	0.06461991
13	0x3d8f64bc	0.070016354
14	0xbcc09934	-0.023510553
15	0xbd8c30ec	-0.068452686
16	0x3d1fc5b9	0.039006922
17	0x3d74c667	0.059759524
18	0x3d97e98f	0.07417595
19	0x3d626812	0.05527503
20	0x3cbf851f	0.023378907
21	0x3bb49bbd	0.0055117295
22	0x3d24428b	0.040102523
23	0x3d376a6d	0.04477923
24	0x3ca47d0b	0.020079156
25	0x3d17480b	0.03693394
26	0x3dab9f05	0.0837994
27	0x3d99b8c1	0.07505942
28	0xbb89c59b	-0.0042044646
29	0x3c074113	0.008255261
30	0x3b365e8c	0.002782735
31	0x3d5ae12b	0.053437393
32	0x3c672a7d	0.014109251
33	0x3cb93be4	0.022611566
34	0xbbbc437d	-0.00574535
35	0x3c56d146	0.013111418
36	0x3d3f8a75	0.046762902
37	0x3d0e4148	0.034730226
38	0xbd97fa95	-0.074208416
39	0x3c0ee5fc	0.008721825
40	0x3d935967	0.071947865
41	0x3e287e05	0.16454323
42	0xbcb41669	-0.021983342
43	0x3d24b0cb	0.040207665
44	0x3d215f98	0.039397806
45	0xbc2849a3	-0.010271463
46	0xbd68de1e	-0.056852452
47	0xbd94fdb7	-0.07274955
48	0x3d3ab511	0.045582835
49	0xbdaf91cc	-0.085727304
50	0x3d43e778	0.047828168
51	0xbc93f91d	-0.018063122
52	0xbb8b2d0d	-0.004247314
53	0xbe3fe37d	-0.18739124
54	0xbd087b45	-0.033320684
55	0xbd6ae60e	-0.057348303
56	0xbe19c18d	-0.1501524
57	0xbe217fea	-0.15771452
58	0xbd9d4edd	-0.076810576
59	0xbdae2945	-0.08503965
60	0xbd5069a2	-0.05088199
61	0xbe15d8ae	-0.14633438
62	0x3d17860d	0.036993075
63	0xbdf42425	-0.119209565
64	0xbcda976f	-0.026683537
65	0x3c9bfb1a	0.019040633
66	0x3b4cc6be	0.003124639
67	0xbdaa2b4d	-0.0830904
68	0xbd08ccf5	-0.033398587
69	0xbccc83c9	-0.024965184
70	0x3d0ead49	0.034833226
71	0xbcdc892f	-0.026920883
72	0x3c999ca8	0.018751457
73	0xbdb1d02d	-0.086822845
74	0xbd097157	-0.033555355
75	0xbd3577c6	-0.044303678
76	0x3d12e282	0.035860546
77	0xbd87ad6c	-0.066248745
78	0xbdba4b8a	-0.09096439
79	0xbd4794fe	-0.048726074
80	0xbc9cb886	-0.019130956
81	0xbd318618	-0.043340772
82	0xbd00a98c	-0.031411693
83	0xbccef82d	-0.025264824
84	0xbd35a222	-0.044344075
85	0xbd9af626	-0.0756648
86	0x3d377b33	0.044795226
87	0xbdb245f9	-0.087047525
88	0xbd1922d9	-0.03738675
89	0x3e041750	0.12899518
90	0x3da11587	0.07865434
91	0xbcee9eff	-0.02912855
92	0xbce85f0d	-0.028365636
93	0x3a235ea6	0.000623206
94	0x3cd7bac9	0.026334183
95	0xbd8ffa46	-0.07030158
96	0x3d0ed193	0.034867834
97	0x3ba365db	0.0049865074
98	0xbca2e080	-0.01988244
99	0x3cbefedb	0.023314884
100	0x3cc7da38	0.024396047
101	0x3ba8661f	0.005139127
102	0xbd1a9b1b	-0.037745576
103	0xbdef2655	-0.11677233
104	0x3d03a189	0.032136474
105	0x3e17d079	0.1482562
106	0x3b85340f	0.0040650438
107	0x3c4f7548	0.012662239
108	0x3d895a67	0.06706696
109	0xbe0bd9af	-0.13657258
110	0xbd0d1bb2	-0.03445024
111	0xbb424dbc	-0.0029648384
112	0xbd817faf	-0.06323182
113	0xbcbcc0c4	-0.023041137
114	0xbd33c106	-0.043885253
115	0xbbdb2523	-0.0066877767
116	0xbbe54052	-0.006996193
117	0xbc74c514	-0.014939565
118	0xbca79ecf	-0.020461468
119	0x3d4ed056	0.050491653
120	0x3d9ee1e3	0.07757928
121	0x3e0b36b3	0.13595085
122	0xbd805287	-0.06265741
123	0xbce205ff	-0.02759075
124	0x3d66029a	0.056154825
125	0x3d15ddea	0.036588587
126	0xbd24add6	-0.040204845
127	0x3d31bed4	0.04339488
128	0x3d3284ec	0.043583795
129	0x3d41c619	0.04730806
130	0xbd6a514f	-0.05720645
131	0xbd11451d	-0.035466302
132	0x3d9f0014	0.07763687
133	0x3d464b29	0.048411522
134	0x3dccf34c	0.10007343
135	0xbd4d83d1	-0.050174538
136	0xbd592f2c	-0.053023502
137	0xbb09b9d2	-0.0021015299
138	0x3da03395	0.078223385
139	0x3d28fcd8	0.041256756
140	0x3c003fb6	0.00782769
141	0x3d493e42	0.04913164
142	0xbc346e1e	-0.011012582
143	0xbcdd68f4	-0.027027585
144	0xbd148964	-0.03626384
145	0xbc166a74	-0.009180654
146	0xbd41dc5c	-0.04732929
147	0xbe07716d	-0.13226862
148	0x3cb934a7	0.022608114
149	0xbda715e1	-0.0815847
150	0xbd2434aa	-0.040089287
151	0xbc8d20b1	-0.017227503
152	0x3c9dc318	0.019258067
153	0x3d6ceedc	0.05784498
154	0xbccf3aa5	-0.025296519
155	0xbd2b901e	-0.041885488
156	0x3c59c9a5	0.013292705
157	0xbb761e14	-0.003755455
158	0x3b5decf7	0.0033863166
159	0x3bb79650	0.0056026354
160	0x3c4559b5	0.012045314
161	0x3c63ed92	0.013911622
162	0x3ceb5cdb	0.0287308
163	0x3d40e277	0.047090974
164	0x3e55eaf4	0.20890409
165	0xbd8b11fd	-0.0679054
166	0x3e1a78f6	0.15085205
167	0xbc850bb1	-0.016240926
168	0xbd7822ae	-0.060579948
169	0xbd020821	-0.031746034
170	0x3d99e01d	0.07513449
171	0x3d04ad4e	0.03239184
172	0xbd1bde15	-0.03805359
173	0xbd4abebf	-0.049498316
174	0x3da7d3d7	0.08194702
175	0xbe136c07	-0.14396678
176	0xbd0d21c1	-0.03445602
177	0xba37bce4	-0.0007009043
178	0x3d513914	0.051079825
179	0x3db3ec8d	0.08785353
180	0xbdf06e47	-0.11739784
181	0xbcddd839	-0.027080642
182	0xbd9ed36f	-0.077551715
183	0xbcfd2666	-0.030902099
184	0x3dabebd4	0.0839459
185	0xbd1c6682	-0.038183697
186	0x3cf71763	0.030162519
187	0x3dac77e4	0.08421305
188	0xbb5b02aa	-0.0033418336
189	0xbd617108	-0.055039436
190	0x3d479a41	0.048731092
191	0xbdaa1508	-0.08304793
192	0xbd191996	-0.037377916
193	0xbd85fcf7	-0.0654239
194	0x3d0ab810	0.033866942
195	0xbdb7b940	-0.089708805
196	0x3dad1e5b	0.084530555
197	0xbd3162ab	-0.043306988
198	0xbb01da25	-0.0019813862
199	0x3d86080a	0.06544502
200	0x3dfbd26e	0.12295996
201	0xbd5603ab	-0.05224959
202	0xbd388fd2	-0.045059033
203	0x3cd1576e	0.025554385
204	0x3d0695c3	0.032857668
205	0x3d4d9b26	0.05019679
206	0x3dbb8e18	0.091579616
207	0x3daa0449	0.083015986
208	0x3c5a2f83	0.013316992
209	0x3d77f0f7	0.060532536
210	0x3ca550a4	0.020180054
211	0x3beb7b36	0.0071863187
212	0xbc4875e9	-0.012235143
213	0xbd2f3cf7	-0.04278275
214	0x3e857d6d	0.26072255
215	0xbdd51716	-0.10404794
216	0x3c4ed0e9	0.01262305
217	0x3d6dc723	0.05805124
218	0x3d86a560	0.065745115
219	0x3a82003c	0.0009918283
220	0x3d7485df	0.059697982
221	0xbbfcf01f	-0.0077190544
222	0xbd8a2854	-0.06745973
223	0xbdbd4cd6	-0.09243171
224	0xbd16829e	-0.03674566
225	0x3bac7fc2	0.0052642534
226	0x3c2acf86	0.010425454
227	0xbc10cc31	-0.0088377455
228	0x3dbc02ea	0.09180243
229	0xbdcdf8c2	-0.100572124
230	0x3e003ee3	0.1252399
231	0xbd8d16bf	-0.06889104
232	0xbd26a994	-0.040689066
233	0xbd642365	-0.055697817
234	0x3c9392ab	0.018014273
235	0xbc4f320d	-0.01264621
236	0xbc8dc755	-0.017306963
237	0xbd09ad22	-0.033612378
238	0x3cfb2ffa	0.030662525
239	0xbdbf016e	-0.093264446
240	0xbc4ed768	-0.012624599
241	0x3c32e15f	0.0109179905
242	0x3d16179c	0.03664361
243	0xbd1103d3	-0.035404038
244	0x3d81674f	0.06318533
245	0x3cb162b0	0.021653503
246	0x3d97ab56	0.074057266
247	0x3989f973	0.0002631653
248	0xbd8b5de4	-0.068050176
249	0xbd3feafb	-0.046854954
250	0xbc1fb1e1	-0.0097469995
251	0xbcae6f96	-0.021293443
252	0x3c3b48ac	0.011430901
253	0xbc80a979	-0.01570581
254	0x3c988473	0.018617844
255	0x3d744255	0.05963357

bias f4 [8]
0	0xbd447235	-0.04796048
1	0x3cb139b2	0.021633957
2	0xbb864a76	-0.004098232
3	0x3d57080e	0.052497916
4	0xbd167a3d	-0.03673767
5	0x3d9a8db7	0.07546561
6	0x3d035881	0.032066826
7	0xbce16d69	-0.027517991

weight f4 [8]
0	0x3f768390	0.962945
1	0x3f78d23b	0.97195786
2	0x3f792698	0.97324514
3	0x3f81da58	1.0144758
4	0x3f68d04e	0.9094285
5	0x3f724ea4	0.94651246
6	0x3f73fbca	0.95306075
7	0x3f7bd3ae	0.9836987

bias f4 [8]
0	0xbd46594b	-0.048425
1	0x3d657d86	0.05602791
2	0x3c3a3772	0.011365758
3	0x3dcf7a96	0.10130803
4	0xbe1a71ed	-0.15082522
5	0xbdd2036e	-0.102545604
6	0xbd17c990	-0.03705746
7	0x3ca2ef24	0.019889422

running_mean f4 [8]
0	0xbd000598	-0.031255335
1	0xbdb12e49	-0.08651406
2	0x3d12e073	0.035858583
3	0xbd9f4038	-0.07775921
4	0xbe142ab5	-0.14469416
5	0x3d26952b	0.0406696
6	0x3d27116d	0.040788103
7	0x3cc5e5a5	0.024157355

running_var f4 [8]
0	0x3cfdcf80	0.030982733
1	0x3d234069	0.03985635
2	0x3d98180a	0.0742646
3	0x3d589358	0.052874893
4	0x3d0bbc21	0.03411496
5	0x3dd7fd85	0.10546402
6	0x3dcdd92f	0.1005119
7	0x3cfec8bf	0.031101583

weight f4 [8, 3, 4, 4]
0	0x3d49afde	0.049239986
1	0x3d75a4d6	0.059971653
2	0x3ce729d3	0.028218186
3	0xbda0ffc9	-0.07861287
4	0x3c2dec24	0.010615382
5	0x3e1b2f44	0.15154749
6	0x3d8a795e	0.0676143
7	0x3cb4c289	0.022065418
8	0x3d36e408	0.04465106
9	0x3e36e777	0.17861734
10	0x3de513a1	0.111853845
11	0x3dddbcae	0.108270034
12	0xbc4184b4	-0.011811424
13	0x3da22775	0.07917682
14	0x3d38039c	0.044925317
15	0x3d5122fa	0.051058747
16	0xbcc83e9a	-0.024443913
17	0x3e00b524	0.125691
18	0x3d711aac	0.058863327
19	0xbd22be8f	-0.039732512
20	0xbd36ee8f	-0.0446611
21	0x3dd3e69f	0.10346722
22	0x3d77fd2c	0.060544178
23	0x3c5b3090	0.013378277
24	0x3d270b13	0.040782046
25	0x3de5e017	0.11224382
26	0x3bda7f2d	0.0066679926
27	0x3daba687	0.08381372
28	0xbc9fe6a1	-0.019519152
29	0x3de09437	0.1096577
30	0xbd3842fd	-0.04498576
31	0x3cd99449	0.026559966
32	0x3ba80aed	0.0051282556
33	0x3da7dc26	0.08196287
34	0x3d8b4562	0.06800343
35	0x3d4aca35	0.049509246
36	0xbdb4db46	-0.088308856
37	0xbc70b2d1	-0.014691071
38	0x3cad0443	0.021120196
39	0x3c8fc511	0.017550023
40	0x3df35d3a	0.11883016
41	0x3dd09ffd	0.10186765
42	0x3df4fdf1	0.11962498
43	0x3d2232ad	0.03959911
44	0x3c5c72a3	0.013455066
45	0x3debf5a9	0.11521465
46	0x3d864ec9	0.06557996
47	0xbcbdbe5f	-0.023162065
48	0x3e002f38	0.12518013
49	0x3d6d92c2	0.058001287
50	0x3b241d58	0.0025041904
51	0x3db45dec	0.08806977
52	0x3d07212a	0.032990612
53	0x3c64fb09	0.013975867
54	0x3d6e3b42	0.05816198
55	0x3d09d956	0.033654533
56	0x3d182d6b	0.03715269
57	0x3d495374	0.049151853
58	0x3d892d4c	0.06698093
59	0x3d35b731	0.044364158
60	0x3e095186	0.13410005
61	0x3dc8ad68	0.097986996
62	0x3cc0c0c9	0.023529427
63	0x3d709e8a	0.058744945
64	0xbca451a6	-0.020058464
65	0xbd4cf1fb	-0.050035458
66	0xbd5eb0d0	-0.05436784
67	0xbd22d2c0	-0.039751768
68	0xbdbba40d	-0.091621496
69	0xbe0b178f	-0.13583206
70	0xbd4e9c90	-0.05044228
71	0xbcc9b0be	-0.02462041
72	0xbd9565ac	-0.07294783
73	0xbdf0604a	-0.11737116
74	0xbda97f46	-0.082762286
75	0xbd7c9e3a	-0.061674334
76	0xbd080683	-0.033209335
77	0xbd48c47f	-0.04901552
78	0xbd38736b	-0.045031946
79	0xbd3541d0	-0.044252217
80	0xbd198235	-0.03747769
81	0xbe0f5bbd	-0.13999839
82	0xbe00523a	-0.12531367
83	0xbdad6900	-0.08467293
84	0xbe0d98e2	-0.13827851
85	0xbe759a8d	-0.23984738
86	0xbe06fa30	-0.13181376
87	0xbd2102a8	-0.039309174
88	0xbe25634f	-0.16151164
89	0xbe3bf720	-0.1835599
90	0xbe08e09a	-0.13366929
91	0xbdc8c710	-0.09803593
92	0xbd9151f4	-0.070957094
93	0xbe025a7e	-0.12729833
94	0xbe09d084	-0.13458449
95	0xbd74e0fb	-0.05978487
96	0xbbd18d13	-0.006394991
97	0x3cd72ca7	0.02626641
98	0x3c25e4b1	0.010125325
99	0x3d97a713	0.07404914
100	0x3d6367b8	0.055518836
101	0x3d845b2c	0.06462702
102	0x3df35e51	0.11883224
103	0x3e0237a6	0.1271654
104	0x3d97f7c8	0.074203074
105	0xbc1f5895	-0.009725709
106	0x3d2daf90	0.042403758
107	0x3df2f86a	0.118637875
108	0x3c305208	0.010761745
109	0x3b1a6518	0.0023558792
110	0x3d3cd25b	0.046099048
111	0x3db06819	0.08613605
112	0xbd259d52	-0.040433235
113	0x3cae7dcd	0.02130022
114	0x3cc8141c	0.024423651
115	0x3cbaf882	0.022823576
116	0x3d1e63c4	0.038669363
117	0x3d8f2cf5	0.06990997
118	0x3e20fbf2	0.1572111
119	0x3e204b02	0.15653613
120	0x3d8d65bc	0.0690417
121	0x3dac8762	0.0842426
122	0x3e04c6cf	0.12966464
123	0x3e2c2048	0.1680919
124	0x3d0eabd9	0.034831855
125	0x3d677ed3	0.056517433
126	0x3c93fed8	0.018065855
127	0x3da2a507	0.07941633
128	0xbd938cfe	-0.072046265
129	0x3d160fa4	0.03663601
130	0xbd3feff7	-0.046859708
131	0xbc8fccfc	-0.017553799
132	0x3db35e51	0.08758224
133	0x3c0055e4	0.007832978
134	0x3d27c8d9	0.040963028
135	0x3e0ce3e4	0.13758808
136	0x3b2dda6b	0.0026527892
137	0x3b907761	0.0044087623
138	0xbd7d4cbb	-0.061840754
139	0x3de95a78	0.11394209
140	0xbc8aab3f	-0.01692736
141	0xbd9b499f	-0.075824015
142	0x3d1eae15	0.038740236
143	0x3ca94248	0.020661488
144	0xbe279b56	-0.1636785
145	0xbe3169a7	-0.1732546
146	0xbde9d029	-0.114166565
147	0xbe15c43a	-0.14625636
148	0xbe49d4aa	-0.19710031
149	0xbe2e0849	-0.16995348
150	0xbe2e93fd	-0.1704864
151	0xbde4c322	-0.11170031
152	0xbe1ac92a	-0.151158
153	0xbe5be704	-0.21474844
154	0xbe2a7d8e	-0.16649458
155	0xbe18a4b8	-0.14906585
156	0xbe037ddb	-0.12840979
157	0xbe09494d	-0.13406868
158	0xbe0cec01	-0.13761903
159	0xbe07dd96	-0.13268122
160	0xbda2e1e1	-0.07953239
161	0xbd86fc1d	-0.065910555
162	0xbd747292	-0.059679575
163	0xbd54027d	-0.051760186
164	0xbdb13b8b	-0.08653935
165	0xbd811517	-0.06302851
166	0xbd5fb6dc	-0.054617748
167	0xbd18bc92	-0.03728921
168	0xbd75ddc4	-0.060025945
169	0xbd6518f7	-0.05593201
170	0xbd219da5	-0.039456982
171	0xbccfeb16	-0.025380652
172	0xbd81aa1c	-0.06331274
173	0xbd70c9e7	-0.0587863
174	0xbd92fc69	-0.0717705
175	0xbd32901b	-0.04359446
176	0x3c07b792	0.008283513
177	0xbc6216d8	-0.013799392
178	0x3d0359ed	0.03206818
179	0x3c51f1e4	0.012814019
180	0xbce576fe	-0.028010841
181	0x3d27b4d9	0.040943954
182	0x3d185ebb	0.037199717
183	0xba9f5339	-0.001215554
184	0xbd08b376	-0.033374272
185	0xb9df7be3	-0.00042626177
186	0x3ccb08f4	0.024784543
187	0x3cf0b846	0.029384743
188	0xbcd90ebc	-0.026496284
189	0xbb260d55	-0.0025337536
190	0x3c9757c1	0.018474462
191	0xbd35a8ff	-0.04435062
192	0xbdb28c99	-0.08718223
193	0x3cec46c2	0.028842334
194	0x3da46d70	0.08028686
195	0x3d91e860	0.071244
196	0xbe192374	-0.1495493
197	0xbdbf24d1	-0.09333194
198	0xbc925911	-0.017864736
199	0x3d17a079	0.037018273
200	0xbd7e1db3	-0.062040042
201	0xbd46d84d	-0.048546124
202	0xbddeeaf5	-0.10884658
203	0xbd0218d1	-0.031761948
204	0x3d3e43f7	0.046451535
205	0x3c5ae085	0.013359194
206	0xbcace5c6	-0.021105658
207	0xbd628e84	-0.055311695
208	0xbbc5461d	-0.006020321
209	0x3c8cbca9	0.017179804
210	0x3dba80e4	0.09106615
211	0x3dde885f	0.108658545
212	0xbccc693c	-0.024952523
213	0xbcc40755	-0.023929277
214	0x3d5f8639	0.054571364
215	0x3d25dbc1	0.040492777
216	0x3c7d950d	0.015477431
217	0x3d2f7896	0.04283961
218	0x3c529bf0	0.012854561
219	0x3b8e1034	0.0043354277
220	0x3db08b42	0.08620311
221	0x3da052c8	0.07828289
222	0x3d8856e1	0.06657196
223	0x3d5c5c51	0.053798977
224	0xbe35eb03	-0.17765431
225	0xbd647143	-0.055772077
226	0xbd6fa4bd	-0.058506716
227	0x3c34158a	0.010991463
228	0xbe15958d	-0.1460783
229	0xbdacc820	-0.08436608
230	0xbe1adb02	-0.15122607
231	0xbddf7664	-0.10911253
232	0xbddda1f0	-0.10821903
233	0xbdf614dd	-0.12015698
234	0xbe192971	-0.14957215
235	0xbe2323f8	-0.1593169
236	0x3bff5a0f	0.0077927182
237	0xbd7e8d8f	-0.06214672
238	0xbda64129	-0.08117897
239	0xbd80e399	-0.06293411
240	0x3de1cb9b	0.11025163
241	0x3d6c10c8	0.05763319
242	0xbc818a65	-0.015813062
243	0x3d161434	0.03664036
244	0x3e4b6672	0.19863299
245	0x3d5241b3	0.051332187
246	0x3cf866cf	0.03032246
247	0xbdc5830a	-0.09644134
248	0x3e387b64	0.1801582
249	0x3c00fbb5	0.007872512
250	0xbca11607	-0.019663824
251	0xbddab89f	-0.10679745
252	0x3d7f05be	0.062261336
253	0xbd2100e8	-0.039307505
254	0xbd1c0946	-0.03809478
255	0xbdb3cef2	-0.08779706

bias f4 [3]
0	0x3bac718a	0.0052625583
1	0xbd4b56d7	-0.049643364
2	0xbd903a64	-0.07042387
